…
I0917 13:05:30.664662 23358 net.cpp:296] The NetState phase (0) differed from the phase (1) specified by a rule in layer acc/top-5
I0917 13:05:30.664875 23358 net.cpp:53] Initializing net from parameters: 
name: "ResNet-18_decomposed"
state {
  phase: TRAIN
  level: 0
  stage: ""
}
layer {
  name: "data"
  type: "Data"
  top: "data"
  top: "label"
  include {
    phase: TRAIN
  }
  transform_param {
    mirror: true
    crop_size: 224
    mean_value: 104
    mean_value: 117
    mean_value: 123
  }
  data_param {
    source: "/home/gunju/workspace/caffe/example/imagenet/ilsvrc12_train_lmdb"
    batch_size: 128
    backend: LMDB
  }
}
layer {
  name: "conv1"
  type: "Convolution"
  bottom: "data"
  top: "conv1"
  convolution_param {
    num_output: 64
    bias_term: false
    pad: 3
    kernel_size: 7
    stride: 2
    weight_filler {
      type: "msra"
    }
  }
}
layer {
  name: "bn_conv1"
  type: "BatchNorm"
  bottom: "conv1"
  top: "conv1"
  batch_norm_param {
    moving_average_fraction: 0.9
  }
}
layer {
  name: "scale_conv1"
  type: "Scale"
  bottom: "conv1"
  top: "conv1"
  scale_param {
    bias_term: true
  }
}
layer {
  name: "conv1_relu"
  type: "ReLU"
  bottom: "conv1"
  top: "conv1"
}
layer {
  name: "pool1"
  type: "Pooling"
  bottom: "conv1"
  top: "pool1"
  pooling_param {
    pool: MAX
    kernel_size: 3
    stride: 2
  }
}
layer {
  name: "res2a_branch1"
  type: "Convolution"
  bottom: "pool1"
  top: "res2a_branch1"
  convolution_param {
    num_output: 64
    bias_term: false
    pad: 0
    kernel_size: 1
    stride: 1
    weight_filler {
      type: "msra"
    }
  }
}
layer {
  name: "bn2a_branch1"
  type: "BatchNorm"
  bottom: "res2a_branch1"
  top: "res2a_branch1"
  batch_norm_param {
    moving_average_fraction: 0.9
  }
}
layer {
  name: "scale2a_branch1"
  type: "Scale"
  bottom: "res2a_branch1"
  top: "res2a_branch1"
  scale_param {
    bias_term: true
  }
}
layer {
  name: "res2a_branch2a_S"
  type: "Convolution"
  bottom: "pool1"
  top: "res2a_branch2a_S"
  convolution_param {
    num_output: 31
    pad: 0
    kernel_size: 1
    stride: 1
  }
}
layer {
  name: "res2a_branch2a_core"
  type: "Convolution"
  bottom: "res2a_branch2a_S"
  top: "res2a_branch2a_core"
  convolution_param {
    num_output: 29
    pad: 1
    kernel_size: 3
    stride: 1
  }
}
layer {
  name: "res2a_branch2a_T"
  type: "Convolution"
  bottom: "res2a_branch2a_core"
  top: "res2a_branch2a_T"
  convolution_param {
    num_output: 64
    pad: 0
    kernel_size: 1
    stride: 1
  }
}
layer {
  name: "bn2a_branch2a"
  type: "BatchNorm"
  bottom: "res2a_branch2a_T"
  top: "res2a_branch2a_T"
  batch_norm_param {
    moving_average_fraction: 0.9
  }
}
layer {
  name: "scale2a_branch2a"
  type: "Scale"
  bottom: "res2a_branch2a_T"
  top: "res2a_branch2a_T"
  scale_param {
    bias_term: true
  }
}
layer {
  name: "res2a_branch2a_relu"
  type: "ReLU"
  bottom: "res2a_branch2a_T"
  top: "res2a_branch2a_T"
}
layer {
  name: "res2a_branch2b_S"
  type: "Convolution"
  bottom: "res2a_branch2a_T"
  top: "res2a_branch2b_S"
  convolution_param {
    num_output: 23
    pad: 0
    kernel_size: 1
    stride: 1
  }
}
layer {
  name: "res2a_branch2b_core"
  type: "Convolution"
  bottom: "res2a_branch2b_S"
  top: "res2a_branch2b_core"
  convolution_param {
    num_output: 22
    pad: 1
    kernel_size: 3
    stride: 1
  }
}
layer {
  name: "res2a_branch2b_T"
  type: "Convolution"
  bottom: "res2a_branch2b_core"
  top: "res2a_branch2b_T"
  convolution_param {
    num_output: 64
    pad: 0
    kernel_size: 1
    stride: 1
  }
}
layer {
  name: "bn2a_branch2b"
  type: "BatchNorm"
  bottom: "res2a_branch2b_T"
  top: "res2a_branch2b_T"
  batch_norm_param {
    moving_average_fraction: 0.9
  }
}
layer {
  name: "scale2a_branch2b"
  type: "Scale"
  bottom: "res2a_branch2b_T"
  top: "res2a_branch2b_T"
  scale_param {
    bias_term: true
  }
}
layer {
  name: "res2a"
  type: "Eltwise"
  bottom: "res2a_branch1"
  bottom: "res2a_branch2b_T"
  top: "res2a"
  eltwise_param {
    operation: SUM
  }
}
layer {
  name: "res2a_relu"
  type: "ReLU"
  bottom: "res2a"
  top: "res2a"
}
layer {
  name: "res2b_branch2a_S"
  type: "Convolution"
  bottom: "res2a"
  top: "res2b_branch2a_S"
  convolution_param {
    num_output: 24
    pad: 0
    kernel_size: 1
    stride: 1
  }
}
layer {
  name: "res2b_branch2a_core"
  type: "Convolution"
  bottom: "res2b_branch2a_S"
  top: "res2b_branch2a_core"
  convolution_param {
    num_output: 20
    pad: 1
    kernel_size: 3
    stride: 1
  }
}
layer {
  name: "res2b_branch2a_T"
  type: "Convolution"
  bottom: "res2b_branch2a_core"
  top: "res2b_branch2a_T"
  convolution_param {
    num_output: 64
    pad: 0
    kernel_size: 1
    stride: 1
  }
}
layer {
  name: "bn2b_branch2a"
  type: "BatchNorm"
  bottom: "res2b_branch2a_T"
  top: "res2b_branch2a_T"
  batch_norm_param {
    moving_average_fraction: 0.9
  }
}
layer {
  name: "scale2b_branch2a"
  type: "Scale"
  bottom: "res2b_branch2a_T"
  top: "res2b_branch2a_T"
  scale_param {
    bias_term: true
  }
}
layer {
  name: "res2b_branch2a_relu"
  type: "ReLU"
  bottom: "res2b_branch2a_T"
  top: "res2b_branch2a_T"
}
layer {
  name: "res2b_branch2b_S"
  type: "Convolution"
  bottom: "res2b_branch2a_T"
  top: "res2b_branch2b_S"
  convolution_param {
    num_output: 16
    pad: 0
    kernel_size: 1
    stride: 1
  }
}
layer {
  name: "res2b_branch2b_core"
  type: "Convolution"
  bottom: "res2b_branch2b_S"
  top: "res2b_branch2b_core"
  convolution_param {
    num_output: 18
    pad: 1
    kernel_size: 3
    stride: 1
  }
}
layer {
  name: "res2b_branch2b_T"
  type: "Convolution"
  bottom: "res2b_branch2b_core"
  top: "res2b_branch2b_T"
  convolution_param {
    num_output: 64
    pad: 0
    kernel_size: 1
    stride: 1
  }
}
layer {
  name: "bn2b_branch2b"
  type: "BatchNorm"
  bottom: "res2b_branch2b_T"
  top: "res2b_branch2b_T"
  batch_norm_param {
    moving_average_fraction: 0.9
  }
}
layer {
  name: "scale2b_branch2b"
  type: "Scale"
  bottom: "res2b_branch2b_T"
  top: "res2b_branch2b_T"
  scale_param {
    bias_term: true
  }
}
layer {
  name: "res2b"
  type: "Eltwise"
  bottom: "res2a"
  bottom: "res2b_branch2b_T"
  top: "res2b"
  eltwise_param {
    operation: SUM
  }
}
layer {
  name: "res2b_relu"
  type: "ReLU"
  bottom: "res2b"
  top: "res2b"
}
layer {
  name: "res3a_branch1"
  type: "Convolution"
  bottom: "res2b"
  top: "res3a_branch1"
  convolution_param {
    num_output: 128
    bias_term: false
    pad: 0
    kernel_size: 1
    stride: 2
    weight_filler {
      type: "msra"
    }
  }
}
layer {
  name: "bn3a_branch1"
  type: "BatchNorm"
  bottom: "res3a_branch1"
  top: "res3a_branch1"
  batch_norm_param {
    moving_average_fraction: 0.9
  }
}
layer {
  name: "scale3a_branch1"
  type: "Scale"
  bottom: "res3a_branch1"
  top: "res3a_branch1"
  scale_param {
    bias_term: true
  }
}
layer {
  name: "res3a_branch2a_S"
  type: "Convolution"
  bottom: "res2b"
  top: "res3a_branch2a_S"
  convolution_param {
    num_output: 32
    pad: 0
    kernel_size: 1
    stride: 1
  }
}
layer {
  name: "res3a_branch2a_core"
  type: "Convolution"
  bottom: "res3a_branch2a_S"
  top: "res3a_branch2a_core"
  convolution_param {
    num_output: 16
    pad: 1
    kernel_size: 3
    stride: 2
  }
}
layer {
  name: "res3a_branch2a_T"
  type: "Convolution"
  bottom: "res3a_branch2a_core"
  top: "res3a_branch2a_T"
  convolution_param {
    num_output: 128
    pad: 0
    kernel_size: 1
    stride: 1
  }
}
layer {
  name: "bn3a_branch2a"
  type: "BatchNorm"
  bottom: "res3a_branch2a_T"
  top: "res3a_branch2a_T"
  batch_norm_param {
    moving_average_fraction: 0.9
  }
}
layer {
  name: "scale3a_branch2a"
  type: "Scale"
  bottom: "res3a_branch2a_T"
  top: "res3a_branch2a_T"
  scale_param {
    bias_term: true
  }
}
layer {
  name: "res3a_branch2a_relu"
  type: "ReLU"
  bottom: "res3a_branch2a_T"
  top: "res3a_branch2a_T"
}
layer {
  name: "res3a_branch2b_S"
  type: "Convolution"
  bottom: "res3a_branch2a_T"
  top: "res3a_branch2b_S"
  convolution_param {
    num_output: 48
    pad: 0
    kernel_size: 1
    stride: 1
  }
}
layer {
  name: "res3a_branch2b_core"
  type: "Convolution"
  bottom: "res3a_branch2b_S"
  top: "res3a_branch2b_core"
  convolution_param {
    num_output: 39
    pad: 1
    kernel_size: 3
    stride: 1
  }
}
layer {
  name: "res3a_branch2b_T"
  type: "Convolution"
  bottom: "res3a_branch2b_core"
  top: "res3a_branch2b_T"
  convolution_param {
    num_output: 128
    pad: 0
    kernel_size: 1
    stride: 1
  }
}
layer {
  name: "bn3a_branch2b"
  type: "BatchNorm"
  bottom: "res3a_branch2b_T"
  top: "res3a_branch2b_T"
  batch_norm_param {
    moving_average_fraction: 0.9
  }
}
layer {
  name: "scale3a_branch2b"
  type: "Scale"
  bottom: "res3a_branch2b_T"
  top: "res3a_branch2b_T"
  scale_param {
    bias_term: true
  }
}
layer {
  name: "res3a"
  type: "Eltwise"
  bottom: "res3a_branch1"
  bottom: "res3a_branch2b_T"
  top: "res3a"
  eltwise_param {
    operation: SUM
  }
}
layer {
  name: "res3a_relu"
  type: "ReLU"
  bottom: "res3a"
  top: "res3a"
}
layer {
  name: "res3b_branch2a_S"
  type: "Convolution"
  bottom: "res3a"
  top: "res3b_branch2a_S"
  convolution_param {
    num_output: 40
    pad: 0
    kernel_size: 1
    stride: 1
  }
}
layer {
  name: "res3b_branch2a_core"
  type: "Convolution"
  bottom: "res3b_branch2a_S"
  top: "res3b_branch2a_core"
  convolution_param {
    num_output: 32
    pad: 1
    kernel_size: 3
    stride: 1
  }
}
layer {
  name: "res3b_branch2a_T"
  type: "Convolution"
  bottom: "res3b_branch2a_core"
  top: "res3b_branch2a_T"
  convolution_param {
    num_output: 128
    pad: 0
    kernel_size: 1
    stride: 1
  }
}
layer {
  name: "bn3b_branch2a"
  type: "BatchNorm"
  bottom: "res3b_branch2a_T"
  top: "res3b_branch2a_T"
  batch_norm_param {
    moving_average_fraction: 0.9
  }
}
layer {
  name: "scale3b_branch2a"
  type: "Scale"
  bottom: "res3b_branch2a_T"
  top: "res3b_branch2a_T"
  scale_param {
    bias_term: true
  }
}
layer {
  name: "res3b_branch2a_relu"
  type: "ReLU"
  bottom: "res3b_branch2a_T"
  top: "res3b_branch2a_T"
}
layer {
  name: "res3b_branch2b_S"
  type: "Convolution"
  bottom: "res3b_branch2a_T"
  top: "res3b_branch2b_S"
  convolution_param {
    num_output: 28
    pad: 0
    kernel_size: 1
    stride: 1
  }
}
layer {
  name: "res3b_branch2b_core"
  type: "Convolution"
  bottom: "res3b_branch2b_S"
  top: "res3b_branch2b_core"
  convolution_param {
    num_output: 34
    pad: 1
    kernel_size: 3
    stride: 1
  }
}
layer {
  name: "res3b_branch2b_T"
  type: "Convolution"
  bottom: "res3b_branch2b_core"
  top: "res3b_branch2b_T"
  convolution_param {
    num_output: 128
    pad: 0
    kernel_size: 1
    stride: 1
  }
}
layer {
  name: "bn3b_branch2b"
  type: "BatchNorm"
  bottom: "res3b_branch2b_T"
  top: "res3b_branch2b_T"
  batch_norm_param {
    moving_average_fraction: 0.9
  }
}
layer {
  name: "scale3b_branch2b"
  type: "Scale"
  bottom: "res3b_branch2b_T"
  top: "res3b_branch2b_T"
  scale_param {
    bias_term: true
  }
}
layer {
  name: "res3b"
  type: "Eltwise"
  bottom: "res3a"
  bottom: "res3b_branch2b_T"
  top: "res3b"
  eltwise_param {
    operation: SUM
  }
}
layer {
  name: "res3b_relu"
  type: "ReLU"
  bottom: "res3b"
  top: "res3b"
}
layer {
  name: "res4a_branch1"
  type: "Convolution"
  bottom: "res3b"
  top: "res4a_branch1"
  convolution_param {
    num_output: 256
    bias_term: false
    pad: 0
    kernel_size: 1
    stride: 2
    weight_filler {
      type: "msra"
    }
  }
}
layer {
  name: "bn4a_branch1"
  type: "BatchNorm"
  bottom: "res4a_branch1"
  top: "res4a_branch1"
  batch_norm_param {
    moving_average_fraction: 0.9
  }
}
layer {
  name: "scale4a_branch1"
  type: "Scale"
  bottom: "res4a_branch1"
  top: "res4a_branch1"
  scale_param {
    bias_term: true
  }
}
layer {
  name: "res4a_branch2a_S"
  type: "Convolution"
  bottom: "res3b"
  top: "res4a_branch2a_S"
  convolution_param {
    num_output: 50
    pad: 0
    kernel_size: 1
    stride: 1
  }
}
layer {
  name: "res4a_branch2a_core"
  type: "Convolution"
  bottom: "res4a_branch2a_S"
  top: "res4a_branch2a_core"
  convolution_param {
    num_output: 67
    pad: 1
    kernel_size: 3
    stride: 2
  }
}
layer {
  name: "res4a_branch2a_T"
  type: "Convolution"
  bottom: "res4a_branch2a_core"
  top: "res4a_branch2a_T"
  convolution_param {
    num_output: 256
    pad: 0
    kernel_size: 1
    stride: 1
  }
}
layer {
  name: "bn4a_branch2a"
  type: "BatchNorm"
  bottom: "res4a_branch2a_T"
  top: "res4a_branch2a_T"
  batch_norm_param {
    moving_average_fraction: 0.9
  }
}
layer {
  name: "scale4a_branch2a"
  type: "Scale"
  bottom: "res4a_branch2a_T"
  top: "res4a_branch2a_T"
  scale_param {
    bias_term: true
  }
}
layer {
  name: "res4a_branch2a_relu"
  type: "ReLU"
  bottom: "res4a_branch2a_T"
  top: "res4a_branch2a_T"
}
layer {
  name: "res4a_branch2b_S"
  type: "Convolution"
  bottom: "res4a_branch2a_T"
  top: "res4a_branch2b_S"
  convolution_param {
    num_output: 69
    pad: 0
    kernel_size: 1
    stride: 1
  }
}
layer {
  name: "res4a_branch2b_core"
  type: "Convolution"
  bottom: "res4a_branch2b_S"
  top: "res4a_branch2b_core"
  convolution_param {
    num_output: 60
    pad: 1
    kernel_size: 3
    stride: 1
  }
}
layer {
  name: "res4a_branch2b_T"
  type: "Convolution"
  bottom: "res4a_branch2b_core"
  top: "res4a_branch2b_T"
  convolution_param {
    num_output: 256
    pad: 0
    kernel_size: 1
    stride: 1
  }
}
layer {
  name: "bn4a_branch2b"
  type: "BatchNorm"
  bottom: "res4a_branch2b_T"
  top: "res4a_branch2b_T"
  batch_norm_param {
    moving_average_fraction: 0.9
  }
}
layer {
  name: "scale4a_branch2b"
  type: "Scale"
  bottom: "res4a_branch2b_T"
  top: "res4a_branch2b_T"
  scale_param {
    bias_term: true
  }
}
layer {
  name: "res4a"
  type: "Eltwise"
  bottom: "res4a_branch1"
  bottom: "res4a_branch2b_T"
  top: "res4a"
  eltwise_param {
    operation: SUM
  }
}
layer {
  name: "res4a_relu"
  type: "ReLU"
  bottom: "res4a"
  top: "res4a"
}
layer {
  name: "res4b_branch2a_S"
  type: "Convolution"
  bottom: "res4a"
  top: "res4b_branch2a_S"
  convolution_param {
    num_output: 64
    pad: 0
    kernel_size: 1
    stride: 1
  }
}
layer {
  name: "res4b_branch2a_core"
  type: "Convolution"
  bottom: "res4b_branch2a_S"
  top: "res4b_branch2a_core"
  convolution_param {
    num_output: 51
    pad: 1
    kernel_size: 3
    stride: 1
  }
}
layer {
  name: "res4b_branch2a_T"
  type: "Convolution"
  bottom: "res4b_branch2a_core"
  top: "res4b_branch2a_T"
  convolution_param {
    num_output: 256
    pad: 0
    kernel_size: 1
    stride: 1
  }
}
layer {
  name: "bn4b_branch2a"
  type: "BatchNorm"
  bottom: "res4b_branch2a_T"
  top: "res4b_branch2a_T"
  batch_norm_param {
    moving_average_fraction: 0.9
  }
}
layer {
  name: "scale4b_branch2a"
  type: "Scale"
  bottom: "res4b_branch2a_T"
  top: "res4b_branch2a_T"
  scale_param {
    bias_term: true
  }
}
layer {
  name: "res4b_branch2a_relu"
  type: "ReLU"
  bottom: "res4b_branch2a_T"
  top: "res4b_branch2a_T"
}
layer {
  name: "res4b_branch2b_S"
  type: "Convolution"
  bottom: "res4b_branch2a_T"
  top: "res4b_branch2b_S"
  convolution_param {
    num_output: 47
    pad: 0
    kernel_size: 1
    stride: 1
  }
}
layer {
  name: "res4b_branch2b_core"
  type: "Convolution"
  bottom: "res4b_branch2b_S"
  top: "res4b_branch2b_core"
  convolution_param {
    num_output: 64
    pad: 1
    kernel_size: 3
    stride: 1
  }
}
layer {
  name: "res4b_branch2b_T"
  type: "Convolution"
  bottom: "res4b_branch2b_core"
  top: "res4b_branch2b_T"
  convolution_param {
    num_output: 256
    pad: 0
    kernel_size: 1
    stride: 1
  }
}
layer {
  name: "bn4b_branch2b"
  type: "BatchNorm"
  bottom: "res4b_branch2b_T"
  top: "res4b_branch2b_T"
  batch_norm_param {
    moving_average_fraction: 0.9
  }
}
layer {
  name: "scale4b_branch2b"
  type: "Scale"
  bottom: "res4b_branch2b_T"
  top: "res4b_branch2b_T"
  scale_param {
    bias_term: true
  }
}
layer {
  name: "res4b"
  type: "Eltwise"
  bottom: "res4a"
  bottom: "res4b_branch2b_T"
  top: "res4b"
  eltwise_param {
    operation: SUM
  }
}
layer {
  name: "res4b_relu"
  type: "ReLU"
  bottom: "res4b"
  top: "res4b"
}
layer {
  name: "res5a_branch1"
  type: "Convolution"
  bottom: "res4b"
  top: "res5a_branch1"
  convolution_param {
    num_output: 512
    bias_term: false
    pad: 0
    kernel_size: 1
    stride: 2
    weight_filler {
      type: "msra"
    }
  }
}
layer {
  name: "bn5a_branch1"
  type: "BatchNorm"
  bottom: "res5a_branch1"
  top: "res5a_branch1"
  batch_norm_param {
    moving_average_fraction: 0.9
  }
}
layer {
  name: "scale5a_branch1"
  type: "Scale"
  bottom: "res5a_branch1"
  top: "res5a_branch1"
  scale_param {
    bias_term: true
  }
}
layer {
  name: "res5a_branch2a_S"
  type: "Convolution"
  bottom: "res4b"
  top: "res5a_branch2a_S"
  convolution_param {
    num_output: 88
    pad: 0
    kernel_size: 1
    stride: 1
  }
}
layer {
  name: "res5a_branch2a_core"
  type: "Convolution"
  bottom: "res5a_branch2a_S"
  top: "res5a_branch2a_core"
  convolution_param {
    num_output: 141
    pad: 1
    kernel_size: 3
    stride: 2
  }
}
layer {
  name: "res5a_branch2a_T"
  type: "Convolution"
  bottom: "res5a_branch2a_core"
  top: "res5a_branch2a_T"
  convolution_param {
    num_output: 512
    pad: 0
    kernel_size: 1
    stride: 1
  }
}
layer {
  name: "bn5a_branch2a"
  type: "BatchNorm"
  bottom: "res5a_branch2a_T"
  top: "res5a_branch2a_T"
  batch_norm_param {
    moving_average_fraction: 0.9
  }
}
layer {
  name: "scale5a_branch2a"
  type: "Scale"
  bottom: "res5a_branch2a_T"
  top: "res5a_branch2a_T"
  scale_param {
    bias_term: true
  }
}
layer {
  name: "res5a_branch2a_relu"
  type: "ReLU"
  bottom: "res5a_branch2a_T"
  top: "res5a_branch2a_T"
}
layer {
  name: "res5a_branch2b_S"
  type: "Convolution"
  bottom: "res5a_branch2a_T"
  top: "res5a_branch2b_S"
  convolution_param {
    num_output: 122
    pad: 0
    kernel_size: 1
    stride: 1
  }
}
layer {
  name: "res5a_branch2b_core"
  type: "Convolution"
  bottom: "res5a_branch2b_S"
  top: "res5a_branch2b_core"
  convolution_param {
    num_output: 94
    pad: 1
    kernel_size: 3
    stride: 1
  }
}
layer {
  name: "res5a_branch2b_T"
  type: "Convolution"
  bottom: "res5a_branch2b_core"
  top: "res5a_branch2b_T"
  convolution_param {
    num_output: 512
    pad: 0
    kernel_size: 1
    stride: 1
  }
}
layer {
  name: "bn5a_branch2b"
  type: "BatchNorm"
  bottom: "res5a_branch2b_T"
  top: "res5a_branch2b_T"
  batch_norm_param {
    moving_average_fraction: 0.9
  }
}
layer {
  name: "scale5a_branch2b"
  type: "Scale"
  bottom: "res5a_branch2b_T"
  top: "res5a_branch2b_T"
  scale_param {
    bias_term: true
  }
}
layer {
  name: "res5a"
  type: "Eltwise"
  bottom: "res5a_branch1"
  bottom: "res5a_branch2b_T"
  top: "res5a"
  eltwise_param {
    operation: SUM
  }
}
layer {
  name: "res5a_relu"
  type: "ReLU"
  bottom: "res5a"
  top: "res5a"
}
layer {
  name: "res5b_branch2a_S"
  type: "Convolution"
  bottom: "res5a"
  top: "res5b_branch2a_S"
  convolution_param {
    num_output: 159
    pad: 0
    kernel_size: 1
    stride: 1
  }
}
layer {
  name: "res5b_branch2a_core"
  type: "Convolution"
  bottom: "res5b_branch2a_S"
  top: "res5b_branch2a_core"
  convolution_param {
    num_output: 157
    pad: 1
    kernel_size: 3
    stride: 1
  }
}
layer {
  name: "res5b_branch2a_T"
  type: "Convolution"
  bottom: "res5b_branch2a_core"
  top: "res5b_branch2a_T"
  convolution_param {
    num_output: 512
    pad: 0
    kernel_size: 1
    stride: 1
  }
}
layer {
  name: "bn5b_branch2a"
  type: "BatchNorm"
  bottom: "res5b_branch2a_T"
  top: "res5b_branch2a_T"
  batch_norm_param {
    moving_average_fraction: 0.9
  }
}
layer {
  name: "scale5b_branch2a"
  type: "Scale"
  bottom: "res5b_branch2a_T"
  top: "res5b_branch2a_T"
  scale_param {
    bias_term: true
  }
}
layer {
  name: "res5b_branch2a_relu"
  type: "ReLU"
  bottom: "res5b_branch2a_T"
  top: "res5b_branch2a_T"
}
layer {
  name: "res5b_branch2b_S"
  type: "Convolution"
  bottom: "res5b_branch2a_T"
  top: "res5b_branch2b_S"
  convolution_param {
    num_output: 247
    pad: 0
    kernel_size: 1
    stride: 1
  }
}
layer {
  name: "res5b_branch2b_core"
  type: "Convolution"
  bottom: "res5b_branch2b_S"
  top: "res5b_branch2b_core"
  convolution_param {
    num_output: 259
    pad: 1
    kernel_size: 3
    stride: 1
  }
}
layer {
  name: "res5b_branch2b_T"
  type: "Convolution"
  bottom: "res5b_branch2b_core"
  top: "res5b_branch2b_T"
  convolution_param {
    num_output: 512
    pad: 0
    kernel_size: 1
    stride: 1
  }
}
layer {
  name: "bn5b_branch2b"
  type: "BatchNorm"
  bottom: "res5b_branch2b_T"
  top: "res5b_branch2b_T"
  batch_norm_param {
    moving_average_fraction: 0.9
  }
}
layer {
  name: "scale5b_branch2b"
  type: "Scale"
  bottom: "res5b_branch2b_T"
  top: "res5b_branch2b_T"
  scale_param {
    bias_term: true
  }
}
layer {
  name: "res5b"
  type: "Eltwise"
  bottom: "res5a"
  bottom: "res5b_branch2b_T"
  top: "res5b"
  eltwise_param {
    operation: SUM
  }
}
layer {
  name: "res5b_relu"
  type: "ReLU"
  bottom: "res5b"
  top: "res5b"
}
layer {
  name: "pool5"
  type: "Pooling"
  bottom: "res5b"
  top: "pool5"
  pooling_param {
    pool: AVE
    kernel_size: 7
    stride: 1
  }
}
layer {
  name: "fc1000"
  type: "InnerProduct"
  bottom: "pool5"
  top: "fc1000"
  param {
    lr_mult: 1
    decay_mult: 1
  }
  param {
    lr_mult: 2
    decay_mult: 1
  }
  inner_product_param {
    num_output: 1000
    weight_filler {
      type: "xavier"
    }
    bias_filler {
      type: "constant"
      value: 0
    }
  }
}
layer {
  name: "loss"
  type: "SoftmaxWithLoss"
  bottom: "fc1000"
  bottom: "label"
  top: "loss"
}
I0917 13:05:30.665161 23358 layer_factory.hpp:77] Creating layer data
F0917 13:05:30.665200 23358 db_lmdb.hpp:15] Check failed: mdb_status == 0 (2 vs. 0) No such file or directory
*** Check failure stack trace: ***
    @     0x7f8e02d3c0cd  google::LogMessage::Fail()
    @     0x7f8e02d3df33  google::LogMessage::SendToLog()
    @     0x7f8e02d3bc28  google::LogMessage::Flush()
…
I0917 13:08:11.373041 23496 net.cpp:296] The NetState phase (0) differed from the phase (1) specified by a rule in layer acc/top-5
I0917 13:08:11.373265 23496 net.cpp:53] Initializing net from parameters: 
name: "ResNet-18_decomposed"
state {
  phase: TRAIN
  level: 0
  stage: ""
}
layer {
  name: "data"
  type: "Data"
  top: "data"
  top: "label"
  include {
    phase: TRAIN
  }
  transform_param {
    mirror: true
    crop_size: 224
    mean_value: 104
    mean_value: 117
    mean_value: 123
  }
  data_param {
    source: "/home/gunju/workspace/caffe/examples/imagenet/ilsvrc12_train_lmdb"
    batch_size: 128
    backend: LMDB
  }
}
layer {
  name: "conv1"
  type: "Convolution"
  bottom: "data"
  top: "conv1"
  convolution_param {
    num_output: 64
    bias_term: false
    pad: 3
    kernel_size: 7
    stride: 2
    weight_filler {
      type: "msra"
    }
  }
}
layer {
  name: "bn_conv1"
  type: "BatchNorm"
  bottom: "conv1"
  top: "conv1"
  batch_norm_param {
    moving_average_fraction: 0.9
  }
}
layer {
  name: "scale_conv1"
  type: "Scale"
  bottom: "conv1"
  top: "conv1"
  scale_param {
    bias_term: true
  }
}
layer {
  name: "conv1_relu"
  type: "ReLU"
  bottom: "conv1"
  top: "conv1"
}
layer {
  name: "pool1"
  type: "Pooling"
  bottom: "conv1"
  top: "pool1"
  pooling_param {
    pool: MAX
    kernel_size: 3
    stride: 2
  }
}
layer {
  name: "res2a_branch1"
  type: "Convolution"
  bottom: "pool1"
  top: "res2a_branch1"
  convolution_param {
    num_output: 64
    bias_term: false
    pad: 0
    kernel_size: 1
    stride: 1
    weight_filler {
      type: "msra"
    }
  }
}
layer {
  name: "bn2a_branch1"
  type: "BatchNorm"
  bottom: "res2a_branch1"
  top: "res2a_branch1"
  batch_norm_param {
    moving_average_fraction: 0.9
  }
}
layer {
  name: "scale2a_branch1"
  type: "Scale"
  bottom: "res2a_branch1"
  top: "res2a_branch1"
  scale_param {
    bias_term: true
  }
}
layer {
  name: "res2a_branch2a_S"
  type: "Convolution"
  bottom: "pool1"
  top: "res2a_branch2a_S"
  convolution_param {
    num_output: 31
    pad: 0
    kernel_size: 1
    stride: 1
  }
}
layer {
  name: "res2a_branch2a_core"
  type: "Convolution"
  bottom: "res2a_branch2a_S"
  top: "res2a_branch2a_core"
  convolution_param {
    num_output: 29
    pad: 1
    kernel_size: 3
    stride: 1
  }
}
layer {
  name: "res2a_branch2a_T"
  type: "Convolution"
  bottom: "res2a_branch2a_core"
  top: "res2a_branch2a_T"
  convolution_param {
    num_output: 64
    pad: 0
    kernel_size: 1
    stride: 1
  }
}
layer {
  name: "bn2a_branch2a"
  type: "BatchNorm"
  bottom: "res2a_branch2a_T"
  top: "res2a_branch2a_T"
  batch_norm_param {
    moving_average_fraction: 0.9
  }
}
layer {
  name: "scale2a_branch2a"
  type: "Scale"
  bottom: "res2a_branch2a_T"
  top: "res2a_branch2a_T"
  scale_param {
    bias_term: true
  }
}
layer {
  name: "res2a_branch2a_relu"
  type: "ReLU"
  bottom: "res2a_branch2a_T"
  top: "res2a_branch2a_T"
}
layer {
  name: "res2a_branch2b_S"
  type: "Convolution"
  bottom: "res2a_branch2a_T"
  top: "res2a_branch2b_S"
  convolution_param {
    num_output: 23
    pad: 0
    kernel_size: 1
    stride: 1
  }
}
layer {
  name: "res2a_branch2b_core"
  type: "Convolution"
  bottom: "res2a_branch2b_S"
  top: "res2a_branch2b_core"
  convolution_param {
    num_output: 22
    pad: 1
    kernel_size: 3
    stride: 1
  }
}
layer {
  name: "res2a_branch2b_T"
  type: "Convolution"
  bottom: "res2a_branch2b_core"
  top: "res2a_branch2b_T"
  convolution_param {
    num_output: 64
    pad: 0
    kernel_size: 1
    stride: 1
  }
}
layer {
  name: "bn2a_branch2b"
  type: "BatchNorm"
  bottom: "res2a_branch2b_T"
  top: "res2a_branch2b_T"
  batch_norm_param {
    moving_average_fraction: 0.9
  }
}
layer {
  name: "scale2a_branch2b"
  type: "Scale"
  bottom: "res2a_branch2b_T"
  top: "res2a_branch2b_T"
  scale_param {
    bias_term: true
  }
}
layer {
  name: "res2a"
  type: "Eltwise"
  bottom: "res2a_branch1"
  bottom: "res2a_branch2b_T"
  top: "res2a"
  eltwise_param {
    operation: SUM
  }
}
layer {
  name: "res2a_relu"
  type: "ReLU"
  bottom: "res2a"
  top: "res2a"
}
layer {
  name: "res2b_branch2a_S"
  type: "Convolution"
  bottom: "res2a"
  top: "res2b_branch2a_S"
  convolution_param {
    num_output: 24
    pad: 0
    kernel_size: 1
    stride: 1
  }
}
layer {
  name: "res2b_branch2a_core"
  type: "Convolution"
  bottom: "res2b_branch2a_S"
  top: "res2b_branch2a_core"
  convolution_param {
    num_output: 20
    pad: 1
    kernel_size: 3
    stride: 1
  }
}
layer {
  name: "res2b_branch2a_T"
  type: "Convolution"
  bottom: "res2b_branch2a_core"
  top: "res2b_branch2a_T"
  convolution_param {
    num_output: 64
    pad: 0
    kernel_size: 1
    stride: 1
  }
}
layer {
  name: "bn2b_branch2a"
  type: "BatchNorm"
  bottom: "res2b_branch2a_T"
  top: "res2b_branch2a_T"
  batch_norm_param {
    moving_average_fraction: 0.9
  }
}
layer {
  name: "scale2b_branch2a"
  type: "Scale"
  bottom: "res2b_branch2a_T"
  top: "res2b_branch2a_T"
  scale_param {
    bias_term: true
  }
}
layer {
  name: "res2b_branch2a_relu"
  type: "ReLU"
  bottom: "res2b_branch2a_T"
  top: "res2b_branch2a_T"
}
layer {
  name: "res2b_branch2b_S"
  type: "Convolution"
  bottom: "res2b_branch2a_T"
  top: "res2b_branch2b_S"
  convolution_param {
    num_output: 16
    pad: 0
    kernel_size: 1
    stride: 1
  }
}
layer {
  name: "res2b_branch2b_core"
  type: "Convolution"
  bottom: "res2b_branch2b_S"
  top: "res2b_branch2b_core"
  convolution_param {
    num_output: 18
    pad: 1
    kernel_size: 3
    stride: 1
  }
}
layer {
  name: "res2b_branch2b_T"
  type: "Convolution"
  bottom: "res2b_branch2b_core"
  top: "res2b_branch2b_T"
  convolution_param {
    num_output: 64
    pad: 0
    kernel_size: 1
    stride: 1
  }
}
layer {
  name: "bn2b_branch2b"
  type: "BatchNorm"
  bottom: "res2b_branch2b_T"
  top: "res2b_branch2b_T"
  batch_norm_param {
    moving_average_fraction: 0.9
  }
}
layer {
  name: "scale2b_branch2b"
  type: "Scale"
  bottom: "res2b_branch2b_T"
  top: "res2b_branch2b_T"
  scale_param {
    bias_term: true
  }
}
layer {
  name: "res2b"
  type: "Eltwise"
  bottom: "res2a"
  bottom: "res2b_branch2b_T"
  top: "res2b"
  eltwise_param {
    operation: SUM
  }
}
layer {
  name: "res2b_relu"
  type: "ReLU"
  bottom: "res2b"
  top: "res2b"
}
layer {
  name: "res3a_branch1"
  type: "Convolution"
  bottom: "res2b"
  top: "res3a_branch1"
  convolution_param {
    num_output: 128
    bias_term: false
    pad: 0
    kernel_size: 1
    stride: 2
    weight_filler {
      type: "msra"
    }
  }
}
layer {
  name: "bn3a_branch1"
  type: "BatchNorm"
  bottom: "res3a_branch1"
  top: "res3a_branch1"
  batch_norm_param {
    moving_average_fraction: 0.9
  }
}
layer {
  name: "scale3a_branch1"
  type: "Scale"
  bottom: "res3a_branch1"
  top: "res3a_branch1"
  scale_param {
    bias_term: true
  }
}
layer {
  name: "res3a_branch2a_S"
  type: "Convolution"
  bottom: "res2b"
  top: "res3a_branch2a_S"
  convolution_param {
    num_output: 32
    pad: 0
    kernel_size: 1
    stride: 1
  }
}
layer {
  name: "res3a_branch2a_core"
  type: "Convolution"
  bottom: "res3a_branch2a_S"
  top: "res3a_branch2a_core"
  convolution_param {
    num_output: 16
    pad: 1
    kernel_size: 3
    stride: 2
  }
}
layer {
  name: "res3a_branch2a_T"
  type: "Convolution"
  bottom: "res3a_branch2a_core"
  top: "res3a_branch2a_T"
  convolution_param {
    num_output: 128
    pad: 0
    kernel_size: 1
    stride: 1
  }
}
layer {
  name: "bn3a_branch2a"
  type: "BatchNorm"
  bottom: "res3a_branch2a_T"
  top: "res3a_branch2a_T"
  batch_norm_param {
    moving_average_fraction: 0.9
  }
}
layer {
  name: "scale3a_branch2a"
  type: "Scale"
  bottom: "res3a_branch2a_T"
  top: "res3a_branch2a_T"
  scale_param {
    bias_term: true
  }
}
layer {
  name: "res3a_branch2a_relu"
  type: "ReLU"
  bottom: "res3a_branch2a_T"
  top: "res3a_branch2a_T"
}
layer {
  name: "res3a_branch2b_S"
  type: "Convolution"
  bottom: "res3a_branch2a_T"
  top: "res3a_branch2b_S"
  convolution_param {
    num_output: 48
    pad: 0
    kernel_size: 1
    stride: 1
  }
}
layer {
  name: "res3a_branch2b_core"
  type: "Convolution"
  bottom: "res3a_branch2b_S"
  top: "res3a_branch2b_core"
  convolution_param {
    num_output: 39
    pad: 1
    kernel_size: 3
    stride: 1
  }
}
layer {
  name: "res3a_branch2b_T"
  type: "Convolution"
  bottom: "res3a_branch2b_core"
  top: "res3a_branch2b_T"
  convolution_param {
    num_output: 128
    pad: 0
    kernel_size: 1
    stride: 1
  }
}
layer {
  name: "bn3a_branch2b"
  type: "BatchNorm"
  bottom: "res3a_branch2b_T"
  top: "res3a_branch2b_T"
  batch_norm_param {
    moving_average_fraction: 0.9
  }
}
layer {
  name: "scale3a_branch2b"
  type: "Scale"
  bottom: "res3a_branch2b_T"
  top: "res3a_branch2b_T"
  scale_param {
    bias_term: true
  }
}
layer {
  name: "res3a"
  type: "Eltwise"
  bottom: "res3a_branch1"
  bottom: "res3a_branch2b_T"
  top: "res3a"
  eltwise_param {
    operation: SUM
  }
}
layer {
  name: "res3a_relu"
  type: "ReLU"
  bottom: "res3a"
  top: "res3a"
}
layer {
  name: "res3b_branch2a_S"
  type: "Convolution"
  bottom: "res3a"
  top: "res3b_branch2a_S"
  convolution_param {
    num_output: 40
    pad: 0
    kernel_size: 1
    stride: 1
  }
}
layer {
  name: "res3b_branch2a_core"
  type: "Convolution"
  bottom: "res3b_branch2a_S"
  top: "res3b_branch2a_core"
  convolution_param {
    num_output: 32
    pad: 1
    kernel_size: 3
    stride: 1
  }
}
layer {
  name: "res3b_branch2a_T"
  type: "Convolution"
  bottom: "res3b_branch2a_core"
  top: "res3b_branch2a_T"
  convolution_param {
    num_output: 128
    pad: 0
    kernel_size: 1
    stride: 1
  }
}
layer {
  name: "bn3b_branch2a"
  type: "BatchNorm"
  bottom: "res3b_branch2a_T"
  top: "res3b_branch2a_T"
  batch_norm_param {
    moving_average_fraction: 0.9
  }
}
layer {
  name: "scale3b_branch2a"
  type: "Scale"
  bottom: "res3b_branch2a_T"
  top: "res3b_branch2a_T"
  scale_param {
    bias_term: true
  }
}
layer {
  name: "res3b_branch2a_relu"
  type: "ReLU"
  bottom: "res3b_branch2a_T"
  top: "res3b_branch2a_T"
}
layer {
  name: "res3b_branch2b_S"
  type: "Convolution"
  bottom: "res3b_branch2a_T"
  top: "res3b_branch2b_S"
  convolution_param {
    num_output: 28
    pad: 0
    kernel_size: 1
    stride: 1
  }
}
layer {
  name: "res3b_branch2b_core"
  type: "Convolution"
  bottom: "res3b_branch2b_S"
  top: "res3b_branch2b_core"
  convolution_param {
    num_output: 34
    pad: 1
    kernel_size: 3
    stride: 1
  }
}
layer {
  name: "res3b_branch2b_T"
  type: "Convolution"
  bottom: "res3b_branch2b_core"
  top: "res3b_branch2b_T"
  convolution_param {
    num_output: 128
    pad: 0
    kernel_size: 1
    stride: 1
  }
}
layer {
  name: "bn3b_branch2b"
  type: "BatchNorm"
  bottom: "res3b_branch2b_T"
  top: "res3b_branch2b_T"
  batch_norm_param {
    moving_average_fraction: 0.9
  }
}
layer {
  name: "scale3b_branch2b"
  type: "Scale"
  bottom: "res3b_branch2b_T"
  top: "res3b_branch2b_T"
  scale_param {
    bias_term: true
  }
}
layer {
  name: "res3b"
  type: "Eltwise"
  bottom: "res3a"
  bottom: "res3b_branch2b_T"
  top: "res3b"
  eltwise_param {
    operation: SUM
  }
}
layer {
  name: "res3b_relu"
  type: "ReLU"
  bottom: "res3b"
  top: "res3b"
}
layer {
  name: "res4a_branch1"
  type: "Convolution"
  bottom: "res3b"
  top: "res4a_branch1"
  convolution_param {
    num_output: 256
    bias_term: false
    pad: 0
    kernel_size: 1
    stride: 2
    weight_filler {
      type: "msra"
    }
  }
}
layer {
  name: "bn4a_branch1"
  type: "BatchNorm"
  bottom: "res4a_branch1"
  top: "res4a_branch1"
  batch_norm_param {
    moving_average_fraction: 0.9
  }
}
layer {
  name: "scale4a_branch1"
  type: "Scale"
  bottom: "res4a_branch1"
  top: "res4a_branch1"
  scale_param {
    bias_term: true
  }
}
layer {
  name: "res4a_branch2a_S"
  type: "Convolution"
  bottom: "res3b"
  top: "res4a_branch2a_S"
  convolution_param {
    num_output: 50
    pad: 0
    kernel_size: 1
    stride: 1
  }
}
layer {
  name: "res4a_branch2a_core"
  type: "Convolution"
  bottom: "res4a_branch2a_S"
  top: "res4a_branch2a_core"
  convolution_param {
    num_output: 67
    pad: 1
    kernel_size: 3
    stride: 2
  }
}
layer {
  name: "res4a_branch2a_T"
  type: "Convolution"
  bottom: "res4a_branch2a_core"
  top: "res4a_branch2a_T"
  convolution_param {
    num_output: 256
    pad: 0
    kernel_size: 1
    stride: 1
  }
}
layer {
  name: "bn4a_branch2a"
  type: "BatchNorm"
  bottom: "res4a_branch2a_T"
  top: "res4a_branch2a_T"
  batch_norm_param {
    moving_average_fraction: 0.9
  }
}
layer {
  name: "scale4a_branch2a"
  type: "Scale"
  bottom: "res4a_branch2a_T"
  top: "res4a_branch2a_T"
  scale_param {
    bias_term: true
  }
}
layer {
  name: "res4a_branch2a_relu"
  type: "ReLU"
  bottom: "res4a_branch2a_T"
  top: "res4a_branch2a_T"
}
layer {
  name: "res4a_branch2b_S"
  type: "Convolution"
  bottom: "res4a_branch2a_T"
  top: "res4a_branch2b_S"
  convolution_param {
    num_output: 69
    pad: 0
    kernel_size: 1
    stride: 1
  }
}
layer {
  name: "res4a_branch2b_core"
  type: "Convolution"
  bottom: "res4a_branch2b_S"
  top: "res4a_branch2b_core"
  convolution_param {
    num_output: 60
    pad: 1
    kernel_size: 3
    stride: 1
  }
}
layer {
  name: "res4a_branch2b_T"
  type: "Convolution"
  bottom: "res4a_branch2b_core"
  top: "res4a_branch2b_T"
  convolution_param {
    num_output: 256
    pad: 0
    kernel_size: 1
    stride: 1
  }
}
layer {
  name: "bn4a_branch2b"
  type: "BatchNorm"
  bottom: "res4a_branch2b_T"
  top: "res4a_branch2b_T"
  batch_norm_param {
    moving_average_fraction: 0.9
  }
}
layer {
  name: "scale4a_branch2b"
  type: "Scale"
  bottom: "res4a_branch2b_T"
  top: "res4a_branch2b_T"
  scale_param {
    bias_term: true
  }
}
layer {
  name: "res4a"
  type: "Eltwise"
  bottom: "res4a_branch1"
  bottom: "res4a_branch2b_T"
  top: "res4a"
  eltwise_param {
    operation: SUM
  }
}
layer {
  name: "res4a_relu"
  type: "ReLU"
  bottom: "res4a"
  top: "res4a"
}
layer {
  name: "res4b_branch2a_S"
  type: "Convolution"
  bottom: "res4a"
  top: "res4b_branch2a_S"
  convolution_param {
    num_output: 64
    pad: 0
    kernel_size: 1
    stride: 1
  }
}
layer {
  name: "res4b_branch2a_core"
  type: "Convolution"
  bottom: "res4b_branch2a_S"
  top: "res4b_branch2a_core"
  convolution_param {
    num_output: 51
    pad: 1
    kernel_size: 3
    stride: 1
  }
}
layer {
  name: "res4b_branch2a_T"
  type: "Convolution"
  bottom: "res4b_branch2a_core"
  top: "res4b_branch2a_T"
  convolution_param {
    num_output: 256
    pad: 0
    kernel_size: 1
    stride: 1
  }
}
layer {
  name: "bn4b_branch2a"
  type: "BatchNorm"
  bottom: "res4b_branch2a_T"
  top: "res4b_branch2a_T"
  batch_norm_param {
    moving_average_fraction: 0.9
  }
}
layer {
  name: "scale4b_branch2a"
  type: "Scale"
  bottom: "res4b_branch2a_T"
  top: "res4b_branch2a_T"
  scale_param {
    bias_term: true
  }
}
layer {
  name: "res4b_branch2a_relu"
  type: "ReLU"
  bottom: "res4b_branch2a_T"
  top: "res4b_branch2a_T"
}
layer {
  name: "res4b_branch2b_S"
  type: "Convolution"
  bottom: "res4b_branch2a_T"
  top: "res4b_branch2b_S"
  convolution_param {
    num_output: 47
    pad: 0
    kernel_size: 1
    stride: 1
  }
}
layer {
  name: "res4b_branch2b_core"
  type: "Convolution"
  bottom: "res4b_branch2b_S"
  top: "res4b_branch2b_core"
  convolution_param {
    num_output: 64
    pad: 1
    kernel_size: 3
    stride: 1
  }
}
layer {
  name: "res4b_branch2b_T"
  type: "Convolution"
  bottom: "res4b_branch2b_core"
  top: "res4b_branch2b_T"
  convolution_param {
    num_output: 256
    pad: 0
    kernel_size: 1
    stride: 1
  }
}
layer {
  name: "bn4b_branch2b"
  type: "BatchNorm"
  bottom: "res4b_branch2b_T"
  top: "res4b_branch2b_T"
  batch_norm_param {
    moving_average_fraction: 0.9
  }
}
layer {
  name: "scale4b_branch2b"
  type: "Scale"
  bottom: "res4b_branch2b_T"
  top: "res4b_branch2b_T"
  scale_param {
    bias_term: true
  }
}
layer {
  name: "res4b"
  type: "Eltwise"
  bottom: "res4a"
  bottom: "res4b_branch2b_T"
  top: "res4b"
  eltwise_param {
    operation: SUM
  }
}
layer {
  name: "res4b_relu"
  type: "ReLU"
  bottom: "res4b"
  top: "res4b"
}
layer {
  name: "res5a_branch1"
  type: "Convolution"
  bottom: "res4b"
  top: "res5a_branch1"
  convolution_param {
    num_output: 512
    bias_term: false
    pad: 0
    kernel_size: 1
    stride: 2
    weight_filler {
      type: "msra"
    }
  }
}
layer {
  name: "bn5a_branch1"
  type: "BatchNorm"
  bottom: "res5a_branch1"
  top: "res5a_branch1"
  batch_norm_param {
    moving_average_fraction: 0.9
  }
}
layer {
  name: "scale5a_branch1"
  type: "Scale"
  bottom: "res5a_branch1"
  top: "res5a_branch1"
  scale_param {
    bias_term: true
  }
}
layer {
  name: "res5a_branch2a_S"
  type: "Convolution"
  bottom: "res4b"
  top: "res5a_branch2a_S"
  convolution_param {
    num_output: 88
    pad: 0
    kernel_size: 1
    stride: 1
  }
}
layer {
  name: "res5a_branch2a_core"
  type: "Convolution"
  bottom: "res5a_branch2a_S"
  top: "res5a_branch2a_core"
  convolution_param {
    num_output: 141
    pad: 1
    kernel_size: 3
    stride: 2
  }
}
layer {
  name: "res5a_branch2a_T"
  type: "Convolution"
  bottom: "res5a_branch2a_core"
  top: "res5a_branch2a_T"
  convolution_param {
    num_output: 512
    pad: 0
    kernel_size: 1
    stride: 1
  }
}
layer {
  name: "bn5a_branch2a"
  type: "BatchNorm"
  bottom: "res5a_branch2a_T"
  top: "res5a_branch2a_T"
  batch_norm_param {
    moving_average_fraction: 0.9
  }
}
layer {
  name: "scale5a_branch2a"
  type: "Scale"
  bottom: "res5a_branch2a_T"
  top: "res5a_branch2a_T"
  scale_param {
    bias_term: true
  }
}
layer {
  name: "res5a_branch2a_relu"
  type: "ReLU"
  bottom: "res5a_branch2a_T"
  top: "res5a_branch2a_T"
}
layer {
  name: "res5a_branch2b_S"
  type: "Convolution"
  bottom: "res5a_branch2a_T"
  top: "res5a_branch2b_S"
  convolution_param {
    num_output: 122
    pad: 0
    kernel_size: 1
    stride: 1
  }
}
layer {
  name: "res5a_branch2b_core"
  type: "Convolution"
  bottom: "res5a_branch2b_S"
  top: "res5a_branch2b_core"
  convolution_param {
    num_output: 94
    pad: 1
    kernel_size: 3
    stride: 1
  }
}
layer {
  name: "res5a_branch2b_T"
  type: "Convolution"
  bottom: "res5a_branch2b_core"
  top: "res5a_branch2b_T"
  convolution_param {
    num_output: 512
    pad: 0
    kernel_size: 1
    stride: 1
  }
}
layer {
  name: "bn5a_branch2b"
  type: "BatchNorm"
  bottom: "res5a_branch2b_T"
  top: "res5a_branch2b_T"
  batch_norm_param {
    moving_average_fraction: 0.9
  }
}
layer {
  name: "scale5a_branch2b"
  type: "Scale"
  bottom: "res5a_branch2b_T"
  top: "res5a_branch2b_T"
  scale_param {
    bias_term: true
  }
}
layer {
  name: "res5a"
  type: "Eltwise"
  bottom: "res5a_branch1"
  bottom: "res5a_branch2b_T"
  top: "res5a"
  eltwise_param {
    operation: SUM
  }
}
layer {
  name: "res5a_relu"
  type: "ReLU"
  bottom: "res5a"
  top: "res5a"
}
layer {
  name: "res5b_branch2a_S"
  type: "Convolution"
  bottom: "res5a"
  top: "res5b_branch2a_S"
  convolution_param {
    num_output: 159
    pad: 0
    kernel_size: 1
    stride: 1
  }
}
layer {
  name: "res5b_branch2a_core"
  type: "Convolution"
  bottom: "res5b_branch2a_S"
  top: "res5b_branch2a_core"
  convolution_param {
    num_output: 157
    pad: 1
    kernel_size: 3
    stride: 1
  }
}
layer {
  name: "res5b_branch2a_T"
  type: "Convolution"
  bottom: "res5b_branch2a_core"
  top: "res5b_branch2a_T"
  convolution_param {
    num_output: 512
    pad: 0
    kernel_size: 1
    stride: 1
  }
}
layer {
  name: "bn5b_branch2a"
  type: "BatchNorm"
  bottom: "res5b_branch2a_T"
  top: "res5b_branch2a_T"
  batch_norm_param {
    moving_average_fraction: 0.9
  }
}
layer {
  name: "scale5b_branch2a"
  type: "Scale"
  bottom: "res5b_branch2a_T"
  top: "res5b_branch2a_T"
  scale_param {
    bias_term: true
  }
}
layer {
  name: "res5b_branch2a_relu"
  type: "ReLU"
  bottom: "res5b_branch2a_T"
  top: "res5b_branch2a_T"
}
layer {
  name: "res5b_branch2b_S"
  type: "Convolution"
  bottom: "res5b_branch2a_T"
  top: "res5b_branch2b_S"
  convolution_param {
    num_output: 247
    pad: 0
    kernel_size: 1
    stride: 1
  }
}
layer {
  name: "res5b_branch2b_core"
  type: "Convolution"
  bottom: "res5b_branch2b_S"
  top: "res5b_branch2b_core"
  convolution_param {
    num_output: 259
    pad: 1
    kernel_size: 3
    stride: 1
  }
}
layer {
  name: "res5b_branch2b_T"
  type: "Convolution"
  bottom: "res5b_branch2b_core"
  top: "res5b_branch2b_T"
  convolution_param {
    num_output: 512
    pad: 0
    kernel_size: 1
    stride: 1
  }
}
layer {
  name: "bn5b_branch2b"
  type: "BatchNorm"
  bottom: "res5b_branch2b_T"
  top: "res5b_branch2b_T"
  batch_norm_param {
    moving_average_fraction: 0.9
  }
}
layer {
  name: "scale5b_branch2b"
  type: "Scale"
  bottom: "res5b_branch2b_T"
  top: "res5b_branch2b_T"
  scale_param {
    bias_term: true
  }
}
layer {
  name: "res5b"
  type: "Eltwise"
  bottom: "res5a"
  bottom: "res5b_branch2b_T"
  top: "res5b"
  eltwise_param {
    operation: SUM
  }
}
layer {
  name: "res5b_relu"
  type: "ReLU"
  bottom: "res5b"
  top: "res5b"
}
layer {
  name: "pool5"
  type: "Pooling"
  bottom: "res5b"
  top: "pool5"
  pooling_param {
    pool: AVE
    kernel_size: 7
    stride: 1
  }
}
layer {
  name: "fc1000"
  type: "InnerProduct"
  bottom: "pool5"
  top: "fc1000"
  param {
    lr_mult: 1
    decay_mult: 1
  }
  param {
    lr_mult: 2
    decay_mult: 1
  }
  inner_product_param {
    num_output: 1000
    weight_filler {
      type: "xavier"
    }
    bias_filler {
      type: "constant"
      value: 0
    }
  }
}
layer {
  name: "loss"
  type: "SoftmaxWithLoss"
  bottom: "fc1000"
  bottom: "label"
  top: "loss"
}
I0917 13:08:11.373570 23496 layer_factory.hpp:77] Creating layer data
I0917 13:08:11.800832 23496 db_lmdb.cpp:35] Opened lmdb /home/gunju/workspace/caffe/examples/imagenet/ilsvrc12_train_lmdb
I0917 13:08:12.161525 23496 net.cpp:86] Creating Layer data
I0917 13:08:12.161607 23496 net.cpp:382] data -> data
I0917 13:08:12.161671 23496 net.cpp:382] data -> label
I0917 13:08:12.168526 23496 data_layer.cpp:45] output data size: 128,3,224,224
I0917 13:08:12.318735 23496 net.cpp:124] Setting up data
I0917 13:08:12.318758 23496 net.cpp:131] Top shape: 128 3 224 224 (19267584)
I0917 13:08:12.318763 23496 net.cpp:131] Top shape: 128 (128)
I0917 13:08:12.318765 23496 net.cpp:139] Memory required for data: 77070848
I0917 13:08:12.318773 23496 layer_factory.hpp:77] Creating layer conv1
I0917 13:08:12.318787 23496 net.cpp:86] Creating Layer conv1
I0917 13:08:12.318791 23496 net.cpp:408] conv1 <- data
I0917 13:08:12.318800 23496 net.cpp:382] conv1 -> conv1
F0917 13:08:12.355015 23506 data_transformer.cpp:168] Check failed: height <= datum_height (224 vs. 148) 
…
I0917 13:13:36.012955 23760 net.cpp:296] The NetState phase (0) differed from the phase (1) specified by a rule in layer acc/top-5
I0917 13:13:36.013187 23760 net.cpp:53] Initializing net from parameters: 
name: "ResNet-18_decomposed"
state {
  phase: TRAIN
  level: 0
  stage: ""
}
layer {
  name: "data"
  type: "Data"
  top: "data"
  top: "label"
  include {
    phase: TRAIN
  }
  transform_param {
    mirror: true
    crop_size: 224
    mean_value: 104
    mean_value: 117
    mean_value: 123
  }
  data_param {
    source: "/home/gunju/workspace/caffe/examples/imagenet/ilsvrc12_train_lmdb"
    batch_size: 256
    backend: LMDB
  }
}
layer {
  name: "conv1"
  type: "Convolution"
  bottom: "data"
  top: "conv1"
  convolution_param {
    num_output: 64
    bias_term: false
    pad: 3
    kernel_size: 7
    stride: 2
    weight_filler {
      type: "msra"
    }
  }
}
layer {
  name: "bn_conv1"
  type: "BatchNorm"
  bottom: "conv1"
  top: "conv1"
  batch_norm_param {
    moving_average_fraction: 0.9
  }
}
layer {
  name: "scale_conv1"
  type: "Scale"
  bottom: "conv1"
  top: "conv1"
  scale_param {
    bias_term: true
  }
}
layer {
  name: "conv1_relu"
  type: "ReLU"
  bottom: "conv1"
  top: "conv1"
}
layer {
  name: "pool1"
  type: "Pooling"
  bottom: "conv1"
  top: "pool1"
  pooling_param {
    pool: MAX
    kernel_size: 3
    stride: 2
  }
}
layer {
  name: "res2a_branch1"
  type: "Convolution"
  bottom: "pool1"
  top: "res2a_branch1"
  convolution_param {
    num_output: 64
    bias_term: false
    pad: 0
    kernel_size: 1
    stride: 1
    weight_filler {
      type: "msra"
    }
  }
}
layer {
  name: "bn2a_branch1"
  type: "BatchNorm"
  bottom: "res2a_branch1"
  top: "res2a_branch1"
  batch_norm_param {
    moving_average_fraction: 0.9
  }
}
layer {
  name: "scale2a_branch1"
  type: "Scale"
  bottom: "res2a_branch1"
  top: "res2a_branch1"
  scale_param {
    bias_term: true
  }
}
layer {
  name: "res2a_branch2a_S"
  type: "Convolution"
  bottom: "pool1"
  top: "res2a_branch2a_S"
  convolution_param {
    num_output: 31
    pad: 0
    kernel_size: 1
    stride: 1
  }
}
layer {
  name: "res2a_branch2a_core"
  type: "Convolution"
  bottom: "res2a_branch2a_S"
  top: "res2a_branch2a_core"
  convolution_param {
    num_output: 29
    pad: 1
    kernel_size: 3
    stride: 1
  }
}
layer {
  name: "res2a_branch2a_T"
  type: "Convolution"
  bottom: "res2a_branch2a_core"
  top: "res2a_branch2a_T"
  convolution_param {
    num_output: 64
    pad: 0
    kernel_size: 1
    stride: 1
  }
}
layer {
  name: "bn2a_branch2a"
  type: "BatchNorm"
  bottom: "res2a_branch2a_T"
  top: "res2a_branch2a_T"
  batch_norm_param {
    moving_average_fraction: 0.9
  }
}
layer {
  name: "scale2a_branch2a"
  type: "Scale"
  bottom: "res2a_branch2a_T"
  top: "res2a_branch2a_T"
  scale_param {
    bias_term: true
  }
}
layer {
  name: "res2a_branch2a_relu"
  type: "ReLU"
  bottom: "res2a_branch2a_T"
  top: "res2a_branch2a_T"
}
layer {
  name: "res2a_branch2b_S"
  type: "Convolution"
  bottom: "res2a_branch2a_T"
  top: "res2a_branch2b_S"
  convolution_param {
    num_output: 23
    pad: 0
    kernel_size: 1
    stride: 1
  }
}
layer {
  name: "res2a_branch2b_core"
  type: "Convolution"
  bottom: "res2a_branch2b_S"
  top: "res2a_branch2b_core"
  convolution_param {
    num_output: 22
    pad: 1
    kernel_size: 3
    stride: 1
  }
}
layer {
  name: "res2a_branch2b_T"
  type: "Convolution"
  bottom: "res2a_branch2b_core"
  top: "res2a_branch2b_T"
  convolution_param {
    num_output: 64
    pad: 0
    kernel_size: 1
    stride: 1
  }
}
layer {
  name: "bn2a_branch2b"
  type: "BatchNorm"
  bottom: "res2a_branch2b_T"
  top: "res2a_branch2b_T"
  batch_norm_param {
    moving_average_fraction: 0.9
  }
}
layer {
  name: "scale2a_branch2b"
  type: "Scale"
  bottom: "res2a_branch2b_T"
  top: "res2a_branch2b_T"
  scale_param {
    bias_term: true
  }
}
layer {
  name: "res2a"
  type: "Eltwise"
  bottom: "res2a_branch1"
  bottom: "res2a_branch2b_T"
  top: "res2a"
  eltwise_param {
    operation: SUM
  }
}
layer {
  name: "res2a_relu"
  type: "ReLU"
  bottom: "res2a"
  top: "res2a"
}
layer {
  name: "res2b_branch2a_S"
  type: "Convolution"
  bottom: "res2a"
  top: "res2b_branch2a_S"
  convolution_param {
    num_output: 24
    pad: 0
    kernel_size: 1
    stride: 1
  }
}
layer {
  name: "res2b_branch2a_core"
  type: "Convolution"
  bottom: "res2b_branch2a_S"
  top: "res2b_branch2a_core"
  convolution_param {
    num_output: 20
    pad: 1
    kernel_size: 3
    stride: 1
  }
}
layer {
  name: "res2b_branch2a_T"
  type: "Convolution"
  bottom: "res2b_branch2a_core"
  top: "res2b_branch2a_T"
  convolution_param {
    num_output: 64
    pad: 0
    kernel_size: 1
    stride: 1
  }
}
layer {
  name: "bn2b_branch2a"
  type: "BatchNorm"
  bottom: "res2b_branch2a_T"
  top: "res2b_branch2a_T"
  batch_norm_param {
    moving_average_fraction: 0.9
  }
}
layer {
  name: "scale2b_branch2a"
  type: "Scale"
  bottom: "res2b_branch2a_T"
  top: "res2b_branch2a_T"
  scale_param {
    bias_term: true
  }
}
layer {
  name: "res2b_branch2a_relu"
  type: "ReLU"
  bottom: "res2b_branch2a_T"
  top: "res2b_branch2a_T"
}
layer {
  name: "res2b_branch2b_S"
  type: "Convolution"
  bottom: "res2b_branch2a_T"
  top: "res2b_branch2b_S"
  convolution_param {
    num_output: 16
    pad: 0
    kernel_size: 1
    stride: 1
  }
}
layer {
  name: "res2b_branch2b_core"
  type: "Convolution"
  bottom: "res2b_branch2b_S"
  top: "res2b_branch2b_core"
  convolution_param {
    num_output: 18
    pad: 1
    kernel_size: 3
    stride: 1
  }
}
layer {
  name: "res2b_branch2b_T"
  type: "Convolution"
  bottom: "res2b_branch2b_core"
  top: "res2b_branch2b_T"
  convolution_param {
    num_output: 64
    pad: 0
    kernel_size: 1
    stride: 1
  }
}
layer {
  name: "bn2b_branch2b"
  type: "BatchNorm"
  bottom: "res2b_branch2b_T"
  top: "res2b_branch2b_T"
  batch_norm_param {
    moving_average_fraction: 0.9
  }
}
layer {
  name: "scale2b_branch2b"
  type: "Scale"
  bottom: "res2b_branch2b_T"
  top: "res2b_branch2b_T"
  scale_param {
    bias_term: true
  }
}
layer {
  name: "res2b"
  type: "Eltwise"
  bottom: "res2a"
  bottom: "res2b_branch2b_T"
  top: "res2b"
  eltwise_param {
    operation: SUM
  }
}
layer {
  name: "res2b_relu"
  type: "ReLU"
  bottom: "res2b"
  top: "res2b"
}
layer {
  name: "res3a_branch1"
  type: "Convolution"
  bottom: "res2b"
  top: "res3a_branch1"
  convolution_param {
    num_output: 128
    bias_term: false
    pad: 0
    kernel_size: 1
    stride: 2
    weight_filler {
      type: "msra"
    }
  }
}
layer {
  name: "bn3a_branch1"
  type: "BatchNorm"
  bottom: "res3a_branch1"
  top: "res3a_branch1"
  batch_norm_param {
    moving_average_fraction: 0.9
  }
}
layer {
  name: "scale3a_branch1"
  type: "Scale"
  bottom: "res3a_branch1"
  top: "res3a_branch1"
  scale_param {
    bias_term: true
  }
}
layer {
  name: "res3a_branch2a_S"
  type: "Convolution"
  bottom: "res2b"
  top: "res3a_branch2a_S"
  convolution_param {
    num_output: 32
    pad: 0
    kernel_size: 1
    stride: 1
  }
}
layer {
  name: "res3a_branch2a_core"
  type: "Convolution"
  bottom: "res3a_branch2a_S"
  top: "res3a_branch2a_core"
  convolution_param {
    num_output: 16
    pad: 1
    kernel_size: 3
    stride: 2
  }
}
layer {
  name: "res3a_branch2a_T"
  type: "Convolution"
  bottom: "res3a_branch2a_core"
  top: "res3a_branch2a_T"
  convolution_param {
    num_output: 128
    pad: 0
    kernel_size: 1
    stride: 1
  }
}
layer {
  name: "bn3a_branch2a"
  type: "BatchNorm"
  bottom: "res3a_branch2a_T"
  top: "res3a_branch2a_T"
  batch_norm_param {
    moving_average_fraction: 0.9
  }
}
layer {
  name: "scale3a_branch2a"
  type: "Scale"
  bottom: "res3a_branch2a_T"
  top: "res3a_branch2a_T"
  scale_param {
    bias_term: true
  }
}
layer {
  name: "res3a_branch2a_relu"
  type: "ReLU"
  bottom: "res3a_branch2a_T"
  top: "res3a_branch2a_T"
}
layer {
  name: "res3a_branch2b_S"
  type: "Convolution"
  bottom: "res3a_branch2a_T"
  top: "res3a_branch2b_S"
  convolution_param {
    num_output: 48
    pad: 0
    kernel_size: 1
    stride: 1
  }
}
layer {
  name: "res3a_branch2b_core"
  type: "Convolution"
  bottom: "res3a_branch2b_S"
  top: "res3a_branch2b_core"
  convolution_param {
    num_output: 39
    pad: 1
    kernel_size: 3
    stride: 1
  }
}
layer {
  name: "res3a_branch2b_T"
  type: "Convolution"
  bottom: "res3a_branch2b_core"
  top: "res3a_branch2b_T"
  convolution_param {
    num_output: 128
    pad: 0
    kernel_size: 1
    stride: 1
  }
}
layer {
  name: "bn3a_branch2b"
  type: "BatchNorm"
  bottom: "res3a_branch2b_T"
  top: "res3a_branch2b_T"
  batch_norm_param {
    moving_average_fraction: 0.9
  }
}
layer {
  name: "scale3a_branch2b"
  type: "Scale"
  bottom: "res3a_branch2b_T"
  top: "res3a_branch2b_T"
  scale_param {
    bias_term: true
  }
}
layer {
  name: "res3a"
  type: "Eltwise"
  bottom: "res3a_branch1"
  bottom: "res3a_branch2b_T"
  top: "res3a"
  eltwise_param {
    operation: SUM
  }
}
layer {
  name: "res3a_relu"
  type: "ReLU"
  bottom: "res3a"
  top: "res3a"
}
layer {
  name: "res3b_branch2a_S"
  type: "Convolution"
  bottom: "res3a"
  top: "res3b_branch2a_S"
  convolution_param {
    num_output: 40
    pad: 0
    kernel_size: 1
    stride: 1
  }
}
layer {
  name: "res3b_branch2a_core"
  type: "Convolution"
  bottom: "res3b_branch2a_S"
  top: "res3b_branch2a_core"
  convolution_param {
    num_output: 32
    pad: 1
    kernel_size: 3
    stride: 1
  }
}
layer {
  name: "res3b_branch2a_T"
  type: "Convolution"
  bottom: "res3b_branch2a_core"
  top: "res3b_branch2a_T"
  convolution_param {
    num_output: 128
    pad: 0
    kernel_size: 1
    stride: 1
  }
}
layer {
  name: "bn3b_branch2a"
  type: "BatchNorm"
  bottom: "res3b_branch2a_T"
  top: "res3b_branch2a_T"
  batch_norm_param {
    moving_average_fraction: 0.9
  }
}
layer {
  name: "scale3b_branch2a"
  type: "Scale"
  bottom: "res3b_branch2a_T"
  top: "res3b_branch2a_T"
  scale_param {
    bias_term: true
  }
}
layer {
  name: "res3b_branch2a_relu"
  type: "ReLU"
  bottom: "res3b_branch2a_T"
  top: "res3b_branch2a_T"
}
layer {
  name: "res3b_branch2b_S"
  type: "Convolution"
  bottom: "res3b_branch2a_T"
  top: "res3b_branch2b_S"
  convolution_param {
    num_output: 28
    pad: 0
    kernel_size: 1
    stride: 1
  }
}
layer {
  name: "res3b_branch2b_core"
  type: "Convolution"
  bottom: "res3b_branch2b_S"
  top: "res3b_branch2b_core"
  convolution_param {
    num_output: 34
    pad: 1
    kernel_size: 3
    stride: 1
  }
}
layer {
  name: "res3b_branch2b_T"
  type: "Convolution"
  bottom: "res3b_branch2b_core"
  top: "res3b_branch2b_T"
  convolution_param {
    num_output: 128
    pad: 0
    kernel_size: 1
    stride: 1
  }
}
layer {
  name: "bn3b_branch2b"
  type: "BatchNorm"
  bottom: "res3b_branch2b_T"
  top: "res3b_branch2b_T"
  batch_norm_param {
    moving_average_fraction: 0.9
  }
}
layer {
  name: "scale3b_branch2b"
  type: "Scale"
  bottom: "res3b_branch2b_T"
  top: "res3b_branch2b_T"
  scale_param {
    bias_term: true
  }
}
layer {
  name: "res3b"
  type: "Eltwise"
  bottom: "res3a"
  bottom: "res3b_branch2b_T"
  top: "res3b"
  eltwise_param {
    operation: SUM
  }
}
layer {
  name: "res3b_relu"
  type: "ReLU"
  bottom: "res3b"
  top: "res3b"
}
layer {
  name: "res4a_branch1"
  type: "Convolution"
  bottom: "res3b"
  top: "res4a_branch1"
  convolution_param {
    num_output: 256
    bias_term: false
    pad: 0
    kernel_size: 1
    stride: 2
    weight_filler {
      type: "msra"
    }
  }
}
layer {
  name: "bn4a_branch1"
  type: "BatchNorm"
  bottom: "res4a_branch1"
  top: "res4a_branch1"
  batch_norm_param {
    moving_average_fraction: 0.9
  }
}
layer {
  name: "scale4a_branch1"
  type: "Scale"
  bottom: "res4a_branch1"
  top: "res4a_branch1"
  scale_param {
    bias_term: true
  }
}
layer {
  name: "res4a_branch2a_S"
  type: "Convolution"
  bottom: "res3b"
  top: "res4a_branch2a_S"
  convolution_param {
    num_output: 50
    pad: 0
    kernel_size: 1
    stride: 1
  }
}
layer {
  name: "res4a_branch2a_core"
  type: "Convolution"
  bottom: "res4a_branch2a_S"
  top: "res4a_branch2a_core"
  convolution_param {
    num_output: 67
    pad: 1
    kernel_size: 3
    stride: 2
  }
}
layer {
  name: "res4a_branch2a_T"
  type: "Convolution"
  bottom: "res4a_branch2a_core"
  top: "res4a_branch2a_T"
  convolution_param {
    num_output: 256
    pad: 0
    kernel_size: 1
    stride: 1
  }
}
layer {
  name: "bn4a_branch2a"
  type: "BatchNorm"
  bottom: "res4a_branch2a_T"
  top: "res4a_branch2a_T"
  batch_norm_param {
    moving_average_fraction: 0.9
  }
}
layer {
  name: "scale4a_branch2a"
  type: "Scale"
  bottom: "res4a_branch2a_T"
  top: "res4a_branch2a_T"
  scale_param {
    bias_term: true
  }
}
layer {
  name: "res4a_branch2a_relu"
  type: "ReLU"
  bottom: "res4a_branch2a_T"
  top: "res4a_branch2a_T"
}
layer {
  name: "res4a_branch2b_S"
  type: "Convolution"
  bottom: "res4a_branch2a_T"
  top: "res4a_branch2b_S"
  convolution_param {
    num_output: 69
    pad: 0
    kernel_size: 1
    stride: 1
  }
}
layer {
  name: "res4a_branch2b_core"
  type: "Convolution"
  bottom: "res4a_branch2b_S"
  top: "res4a_branch2b_core"
  convolution_param {
    num_output: 60
    pad: 1
    kernel_size: 3
    stride: 1
  }
}
layer {
  name: "res4a_branch2b_T"
  type: "Convolution"
  bottom: "res4a_branch2b_core"
  top: "res4a_branch2b_T"
  convolution_param {
    num_output: 256
    pad: 0
    kernel_size: 1
    stride: 1
  }
}
layer {
  name: "bn4a_branch2b"
  type: "BatchNorm"
  bottom: "res4a_branch2b_T"
  top: "res4a_branch2b_T"
  batch_norm_param {
    moving_average_fraction: 0.9
  }
}
layer {
  name: "scale4a_branch2b"
  type: "Scale"
  bottom: "res4a_branch2b_T"
  top: "res4a_branch2b_T"
  scale_param {
    bias_term: true
  }
}
layer {
  name: "res4a"
  type: "Eltwise"
  bottom: "res4a_branch1"
  bottom: "res4a_branch2b_T"
  top: "res4a"
  eltwise_param {
    operation: SUM
  }
}
layer {
  name: "res4a_relu"
  type: "ReLU"
  bottom: "res4a"
  top: "res4a"
}
layer {
  name: "res4b_branch2a_S"
  type: "Convolution"
  bottom: "res4a"
  top: "res4b_branch2a_S"
  convolution_param {
    num_output: 64
    pad: 0
    kernel_size: 1
    stride: 1
  }
}
layer {
  name: "res4b_branch2a_core"
  type: "Convolution"
  bottom: "res4b_branch2a_S"
  top: "res4b_branch2a_core"
  convolution_param {
    num_output: 51
    pad: 1
    kernel_size: 3
    stride: 1
  }
}
layer {
  name: "res4b_branch2a_T"
  type: "Convolution"
  bottom: "res4b_branch2a_core"
  top: "res4b_branch2a_T"
  convolution_param {
    num_output: 256
    pad: 0
    kernel_size: 1
    stride: 1
  }
}
layer {
  name: "bn4b_branch2a"
  type: "BatchNorm"
  bottom: "res4b_branch2a_T"
  top: "res4b_branch2a_T"
  batch_norm_param {
    moving_average_fraction: 0.9
  }
}
layer {
  name: "scale4b_branch2a"
  type: "Scale"
  bottom: "res4b_branch2a_T"
  top: "res4b_branch2a_T"
  scale_param {
    bias_term: true
  }
}
layer {
  name: "res4b_branch2a_relu"
  type: "ReLU"
  bottom: "res4b_branch2a_T"
  top: "res4b_branch2a_T"
}
layer {
  name: "res4b_branch2b_S"
  type: "Convolution"
  bottom: "res4b_branch2a_T"
  top: "res4b_branch2b_S"
  convolution_param {
    num_output: 47
    pad: 0
    kernel_size: 1
    stride: 1
  }
}
layer {
  name: "res4b_branch2b_core"
  type: "Convolution"
  bottom: "res4b_branch2b_S"
  top: "res4b_branch2b_core"
  convolution_param {
    num_output: 64
    pad: 1
    kernel_size: 3
    stride: 1
  }
}
layer {
  name: "res4b_branch2b_T"
  type: "Convolution"
  bottom: "res4b_branch2b_core"
  top: "res4b_branch2b_T"
  convolution_param {
    num_output: 256
    pad: 0
    kernel_size: 1
    stride: 1
  }
}
layer {
  name: "bn4b_branch2b"
  type: "BatchNorm"
  bottom: "res4b_branch2b_T"
  top: "res4b_branch2b_T"
  batch_norm_param {
    moving_average_fraction: 0.9
  }
}
layer {
  name: "scale4b_branch2b"
  type: "Scale"
  bottom: "res4b_branch2b_T"
  top: "res4b_branch2b_T"
  scale_param {
    bias_term: true
  }
}
layer {
  name: "res4b"
  type: "Eltwise"
  bottom: "res4a"
  bottom: "res4b_branch2b_T"
  top: "res4b"
  eltwise_param {
    operation: SUM
  }
}
layer {
  name: "res4b_relu"
  type: "ReLU"
  bottom: "res4b"
  top: "res4b"
}
layer {
  name: "res5a_branch1"
  type: "Convolution"
  bottom: "res4b"
  top: "res5a_branch1"
  convolution_param {
    num_output: 512
    bias_term: false
    pad: 0
    kernel_size: 1
    stride: 2
    weight_filler {
      type: "msra"
    }
  }
}
layer {
  name: "bn5a_branch1"
  type: "BatchNorm"
  bottom: "res5a_branch1"
  top: "res5a_branch1"
  batch_norm_param {
    moving_average_fraction: 0.9
  }
}
layer {
  name: "scale5a_branch1"
  type: "Scale"
  bottom: "res5a_branch1"
  top: "res5a_branch1"
  scale_param {
    bias_term: true
  }
}
layer {
  name: "res5a_branch2a_S"
  type: "Convolution"
  bottom: "res4b"
  top: "res5a_branch2a_S"
  convolution_param {
    num_output: 88
    pad: 0
    kernel_size: 1
    stride: 1
  }
}
layer {
  name: "res5a_branch2a_core"
  type: "Convolution"
  bottom: "res5a_branch2a_S"
  top: "res5a_branch2a_core"
  convolution_param {
    num_output: 141
    pad: 1
    kernel_size: 3
    stride: 2
  }
}
layer {
  name: "res5a_branch2a_T"
  type: "Convolution"
  bottom: "res5a_branch2a_core"
  top: "res5a_branch2a_T"
  convolution_param {
    num_output: 512
    pad: 0
    kernel_size: 1
    stride: 1
  }
}
layer {
  name: "bn5a_branch2a"
  type: "BatchNorm"
  bottom: "res5a_branch2a_T"
  top: "res5a_branch2a_T"
  batch_norm_param {
    moving_average_fraction: 0.9
  }
}
layer {
  name: "scale5a_branch2a"
  type: "Scale"
  bottom: "res5a_branch2a_T"
  top: "res5a_branch2a_T"
  scale_param {
    bias_term: true
  }
}
layer {
  name: "res5a_branch2a_relu"
  type: "ReLU"
  bottom: "res5a_branch2a_T"
  top: "res5a_branch2a_T"
}
layer {
  name: "res5a_branch2b_S"
  type: "Convolution"
  bottom: "res5a_branch2a_T"
  top: "res5a_branch2b_S"
  convolution_param {
    num_output: 122
    pad: 0
    kernel_size: 1
    stride: 1
  }
}
layer {
  name: "res5a_branch2b_core"
  type: "Convolution"
  bottom: "res5a_branch2b_S"
  top: "res5a_branch2b_core"
  convolution_param {
    num_output: 94
    pad: 1
    kernel_size: 3
    stride: 1
  }
}
layer {
  name: "res5a_branch2b_T"
  type: "Convolution"
  bottom: "res5a_branch2b_core"
  top: "res5a_branch2b_T"
  convolution_param {
    num_output: 512
    pad: 0
    kernel_size: 1
    stride: 1
  }
}
layer {
  name: "bn5a_branch2b"
  type: "BatchNorm"
  bottom: "res5a_branch2b_T"
  top: "res5a_branch2b_T"
  batch_norm_param {
    moving_average_fraction: 0.9
  }
}
layer {
  name: "scale5a_branch2b"
  type: "Scale"
  bottom: "res5a_branch2b_T"
  top: "res5a_branch2b_T"
  scale_param {
    bias_term: true
  }
}
layer {
  name: "res5a"
  type: "Eltwise"
  bottom: "res5a_branch1"
  bottom: "res5a_branch2b_T"
  top: "res5a"
  eltwise_param {
    operation: SUM
  }
}
layer {
  name: "res5a_relu"
  type: "ReLU"
  bottom: "res5a"
  top: "res5a"
}
layer {
  name: "res5b_branch2a_S"
  type: "Convolution"
  bottom: "res5a"
  top: "res5b_branch2a_S"
  convolution_param {
    num_output: 159
    pad: 0
    kernel_size: 1
    stride: 1
  }
}
layer {
  name: "res5b_branch2a_core"
  type: "Convolution"
  bottom: "res5b_branch2a_S"
  top: "res5b_branch2a_core"
  convolution_param {
    num_output: 157
    pad: 1
    kernel_size: 3
    stride: 1
  }
}
layer {
  name: "res5b_branch2a_T"
  type: "Convolution"
  bottom: "res5b_branch2a_core"
  top: "res5b_branch2a_T"
  convolution_param {
    num_output: 512
    pad: 0
    kernel_size: 1
    stride: 1
  }
}
layer {
  name: "bn5b_branch2a"
  type: "BatchNorm"
  bottom: "res5b_branch2a_T"
  top: "res5b_branch2a_T"
  batch_norm_param {
    moving_average_fraction: 0.9
  }
}
layer {
  name: "scale5b_branch2a"
  type: "Scale"
  bottom: "res5b_branch2a_T"
  top: "res5b_branch2a_T"
  scale_param {
    bias_term: true
  }
}
layer {
  name: "res5b_branch2a_relu"
  type: "ReLU"
  bottom: "res5b_branch2a_T"
  top: "res5b_branch2a_T"
}
layer {
  name: "res5b_branch2b_S"
  type: "Convolution"
  bottom: "res5b_branch2a_T"
  top: "res5b_branch2b_S"
  convolution_param {
    num_output: 247
    pad: 0
    kernel_size: 1
    stride: 1
  }
}
layer {
  name: "res5b_branch2b_core"
  type: "Convolution"
  bottom: "res5b_branch2b_S"
  top: "res5b_branch2b_core"
  convolution_param {
    num_output: 259
    pad: 1
    kernel_size: 3
    stride: 1
  }
}
layer {
  name: "res5b_branch2b_T"
  type: "Convolution"
  bottom: "res5b_branch2b_core"
  top: "res5b_branch2b_T"
  convolution_param {
    num_output: 512
    pad: 0
    kernel_size: 1
    stride: 1
  }
}
layer {
  name: "bn5b_branch2b"
  type: "BatchNorm"
  bottom: "res5b_branch2b_T"
  top: "res5b_branch2b_T"
  batch_norm_param {
    moving_average_fraction: 0.9
  }
}
layer {
  name: "scale5b_branch2b"
  type: "Scale"
  bottom: "res5b_branch2b_T"
  top: "res5b_branch2b_T"
  scale_param {
    bias_term: true
  }
}
layer {
  name: "res5b"
  type: "Eltwise"
  bottom: "res5a"
  bottom: "res5b_branch2b_T"
  top: "res5b"
  eltwise_param {
    operation: SUM
  }
}
layer {
  name: "res5b_relu"
  type: "ReLU"
  bottom: "res5b"
  top: "res5b"
}
layer {
  name: "pool5"
  type: "Pooling"
  bottom: "res5b"
  top: "pool5"
  pooling_param {
    pool: AVE
    kernel_size: 7
    stride: 1
  }
}
layer {
  name: "fc1000"
  type: "InnerProduct"
  bottom: "pool5"
  top: "fc1000"
  param {
    lr_mult: 1
    decay_mult: 1
  }
  param {
    lr_mult: 2
    decay_mult: 1
  }
  inner_product_param {
    num_output: 1000
    weight_filler {
      type: "xavier"
    }
    bias_filler {
      type: "constant"
      value: 0
    }
  }
}
layer {
  name: "loss"
  type: "SoftmaxWithLoss"
  bottom: "fc1000"
  bottom: "label"
  top: "loss"
}
I0917 13:13:36.013598 23760 layer_factory.hpp:77] Creating layer data
I0917 13:13:36.013671 23760 db_lmdb.cpp:35] Opened lmdb /home/gunju/workspace/caffe/examples/imagenet/ilsvrc12_train_lmdb
I0917 13:13:36.013701 23760 net.cpp:86] Creating Layer data
I0917 13:13:36.013710 23760 net.cpp:382] data -> data
I0917 13:13:36.013727 23760 net.cpp:382] data -> label
I0917 13:13:36.014864 23760 data_layer.cpp:45] output data size: 256,3,224,224
I0917 13:13:36.238924 23760 net.cpp:124] Setting up data
I0917 13:13:36.238947 23760 net.cpp:131] Top shape: 256 3 224 224 (38535168)
I0917 13:13:36.238953 23760 net.cpp:131] Top shape: 256 (256)
I0917 13:13:36.238957 23760 net.cpp:139] Memory required for data: 154141696
I0917 13:13:36.238965 23760 layer_factory.hpp:77] Creating layer conv1
I0917 13:13:36.238986 23760 net.cpp:86] Creating Layer conv1
I0917 13:13:36.238992 23760 net.cpp:408] conv1 <- data
I0917 13:13:36.239006 23760 net.cpp:382] conv1 -> conv1
F0917 13:13:36.282820 23770 data_transformer.cpp:168] Check failed: height <= datum_height (224 vs. 148) 
…
I0918 10:56:13.021353 29801 net.cpp:296] The NetState phase (0) differed from the phase (1) specified by a rule in layer acc/top-5
I0918 10:56:13.022615 29801 net.cpp:53] Initializing net from parameters: 
name: "ResNet-18_decomposed"
state {
  phase: TRAIN
  level: 0
  stage: ""
}
layer {
  name: "data"
  type: "Data"
  top: "data"
  top: "label"
  include {
    phase: TRAIN
  }
  transform_param {
    mirror: true
    crop_size: 224
    mean_value: 104
    mean_value: 117
    mean_value: 123
  }
  data_param {
    source: "/home/gunju/workspace/caffe/examples/imagenet/ilsvrc12_train_lmdb"
    batch_size: 256
    backend: LMDB
  }
}
layer {
  name: "conv1"
  type: "Convolution"
  bottom: "data"
  top: "conv1"
  convolution_param {
    num_output: 64
    bias_term: false
    pad: 3
    kernel_size: 7
    stride: 2
    weight_filler {
      type: "msra"
    }
  }
}
layer {
  name: "bn_conv1"
  type: "BatchNorm"
  bottom: "conv1"
  top: "conv1"
  batch_norm_param {
    moving_average_fraction: 0.9
  }
}
layer {
  name: "scale_conv1"
  type: "Scale"
  bottom: "conv1"
  top: "conv1"
  scale_param {
    bias_term: true
  }
}
layer {
  name: "conv1_relu"
  type: "ReLU"
  bottom: "conv1"
  top: "conv1"
}
layer {
  name: "pool1"
  type: "Pooling"
  bottom: "conv1"
  top: "pool1"
  pooling_param {
    pool: MAX
    kernel_size: 3
    stride: 2
  }
}
layer {
  name: "res2a_branch1"
  type: "Convolution"
  bottom: "pool1"
  top: "res2a_branch1"
  convolution_param {
    num_output: 64
    bias_term: false
    pad: 0
    kernel_size: 1
    stride: 1
    weight_filler {
      type: "msra"
    }
  }
}
layer {
  name: "bn2a_branch1"
  type: "BatchNorm"
  bottom: "res2a_branch1"
  top: "res2a_branch1"
  batch_norm_param {
    moving_average_fraction: 0.9
  }
}
layer {
  name: "scale2a_branch1"
  type: "Scale"
  bottom: "res2a_branch1"
  top: "res2a_branch1"
  scale_param {
    bias_term: true
  }
}
layer {
  name: "res2a_branch2a_S"
  type: "Convolution"
  bottom: "pool1"
  top: "res2a_branch2a_S"
  convolution_param {
    num_output: 31
    pad: 0
    kernel_size: 1
    stride: 1
  }
}
layer {
  name: "res2a_branch2a_core"
  type: "Convolution"
  bottom: "res2a_branch2a_S"
  top: "res2a_branch2a_core"
  convolution_param {
    num_output: 29
    pad: 1
    kernel_size: 3
    stride: 1
  }
}
layer {
  name: "res2a_branch2a_T"
  type: "Convolution"
  bottom: "res2a_branch2a_core"
  top: "res2a_branch2a_T"
  convolution_param {
    num_output: 64
    pad: 0
    kernel_size: 1
    stride: 1
  }
}
layer {
  name: "bn2a_branch2a"
  type: "BatchNorm"
  bottom: "res2a_branch2a_T"
  top: "res2a_branch2a_T"
  batch_norm_param {
    moving_average_fraction: 0.9
  }
}
layer {
  name: "scale2a_branch2a"
  type: "Scale"
  bottom: "res2a_branch2a_T"
  top: "res2a_branch2a_T"
  scale_param {
    bias_term: true
  }
}
layer {
  name: "res2a_branch2a_relu"
  type: "ReLU"
  bottom: "res2a_branch2a_T"
  top: "res2a_branch2a_T"
}
layer {
  name: "res2a_branch2b_S"
  type: "Convolution"
  bottom: "res2a_branch2a_T"
  top: "res2a_branch2b_S"
  convolution_param {
    num_output: 23
    pad: 0
    kernel_size: 1
    stride: 1
  }
}
layer {
  name: "res2a_branch2b_core"
  type: "Convolution"
  bottom: "res2a_branch2b_S"
  top: "res2a_branch2b_core"
  convolution_param {
    num_output: 22
    pad: 1
    kernel_size: 3
    stride: 1
  }
}
layer {
  name: "res2a_branch2b_T"
  type: "Convolution"
  bottom: "res2a_branch2b_core"
  top: "res2a_branch2b_T"
  convolution_param {
    num_output: 64
    pad: 0
    kernel_size: 1
    stride: 1
  }
}
layer {
  name: "bn2a_branch2b"
  type: "BatchNorm"
  bottom: "res2a_branch2b_T"
  top: "res2a_branch2b_T"
  batch_norm_param {
    moving_average_fraction: 0.9
  }
}
layer {
  name: "scale2a_branch2b"
  type: "Scale"
  bottom: "res2a_branch2b_T"
  top: "res2a_branch2b_T"
  scale_param {
    bias_term: true
  }
}
layer {
  name: "res2a"
  type: "Eltwise"
  bottom: "res2a_branch1"
  bottom: "res2a_branch2b_T"
  top: "res2a"
  eltwise_param {
    operation: SUM
  }
}
layer {
  name: "res2a_relu"
  type: "ReLU"
  bottom: "res2a"
  top: "res2a"
}
layer {
  name: "res2b_branch2a_S"
  type: "Convolution"
  bottom: "res2a"
  top: "res2b_branch2a_S"
  convolution_param {
    num_output: 24
    pad: 0
    kernel_size: 1
    stride: 1
  }
}
layer {
  name: "res2b_branch2a_core"
  type: "Convolution"
  bottom: "res2b_branch2a_S"
  top: "res2b_branch2a_core"
  convolution_param {
    num_output: 20
    pad: 1
    kernel_size: 3
    stride: 1
  }
}
layer {
  name: "res2b_branch2a_T"
  type: "Convolution"
  bottom: "res2b_branch2a_core"
  top: "res2b_branch2a_T"
  convolution_param {
    num_output: 64
    pad: 0
    kernel_size: 1
    stride: 1
  }
}
layer {
  name: "bn2b_branch2a"
  type: "BatchNorm"
  bottom: "res2b_branch2a_T"
  top: "res2b_branch2a_T"
  batch_norm_param {
    moving_average_fraction: 0.9
  }
}
layer {
  name: "scale2b_branch2a"
  type: "Scale"
  bottom: "res2b_branch2a_T"
  top: "res2b_branch2a_T"
  scale_param {
    bias_term: true
  }
}
layer {
  name: "res2b_branch2a_relu"
  type: "ReLU"
  bottom: "res2b_branch2a_T"
  top: "res2b_branch2a_T"
}
layer {
  name: "res2b_branch2b_S"
  type: "Convolution"
  bottom: "res2b_branch2a_T"
  top: "res2b_branch2b_S"
  convolution_param {
    num_output: 16
    pad: 0
    kernel_size: 1
    stride: 1
  }
}
layer {
  name: "res2b_branch2b_core"
  type: "Convolution"
  bottom: "res2b_branch2b_S"
  top: "res2b_branch2b_core"
  convolution_param {
    num_output: 18
    pad: 1
    kernel_size: 3
    stride: 1
  }
}
layer {
  name: "res2b_branch2b_T"
  type: "Convolution"
  bottom: "res2b_branch2b_core"
  top: "res2b_branch2b_T"
  convolution_param {
    num_output: 64
    pad: 0
    kernel_size: 1
    stride: 1
  }
}
layer {
  name: "bn2b_branch2b"
  type: "BatchNorm"
  bottom: "res2b_branch2b_T"
  top: "res2b_branch2b_T"
  batch_norm_param {
    moving_average_fraction: 0.9
  }
}
layer {
  name: "scale2b_branch2b"
  type: "Scale"
  bottom: "res2b_branch2b_T"
  top: "res2b_branch2b_T"
  scale_param {
    bias_term: true
  }
}
layer {
  name: "res2b"
  type: "Eltwise"
  bottom: "res2a"
  bottom: "res2b_branch2b_T"
  top: "res2b"
  eltwise_param {
    operation: SUM
  }
}
layer {
  name: "res2b_relu"
  type: "ReLU"
  bottom: "res2b"
  top: "res2b"
}
layer {
  name: "res3a_branch1"
  type: "Convolution"
  bottom: "res2b"
  top: "res3a_branch1"
  convolution_param {
    num_output: 128
    bias_term: false
    pad: 0
    kernel_size: 1
    stride: 2
    weight_filler {
      type: "msra"
    }
  }
}
layer {
  name: "bn3a_branch1"
  type: "BatchNorm"
  bottom: "res3a_branch1"
  top: "res3a_branch1"
  batch_norm_param {
    moving_average_fraction: 0.9
  }
}
layer {
  name: "scale3a_branch1"
  type: "Scale"
  bottom: "res3a_branch1"
  top: "res3a_branch1"
  scale_param {
    bias_term: true
  }
}
layer {
  name: "res3a_branch2a_S"
  type: "Convolution"
  bottom: "res2b"
  top: "res3a_branch2a_S"
  convolution_param {
    num_output: 32
    pad: 0
    kernel_size: 1
    stride: 1
  }
}
layer {
  name: "res3a_branch2a_core"
  type: "Convolution"
  bottom: "res3a_branch2a_S"
  top: "res3a_branch2a_core"
  convolution_param {
    num_output: 16
    pad: 1
    kernel_size: 3
    stride: 2
  }
}
layer {
  name: "res3a_branch2a_T"
  type: "Convolution"
  bottom: "res3a_branch2a_core"
  top: "res3a_branch2a_T"
  convolution_param {
    num_output: 128
    pad: 0
    kernel_size: 1
    stride: 1
  }
}
layer {
  name: "bn3a_branch2a"
  type: "BatchNorm"
  bottom: "res3a_branch2a_T"
  top: "res3a_branch2a_T"
  batch_norm_param {
    moving_average_fraction: 0.9
  }
}
layer {
  name: "scale3a_branch2a"
  type: "Scale"
  bottom: "res3a_branch2a_T"
  top: "res3a_branch2a_T"
  scale_param {
    bias_term: true
  }
}
layer {
  name: "res3a_branch2a_relu"
  type: "ReLU"
  bottom: "res3a_branch2a_T"
  top: "res3a_branch2a_T"
}
layer {
  name: "res3a_branch2b_S"
  type: "Convolution"
  bottom: "res3a_branch2a_T"
  top: "res3a_branch2b_S"
  convolution_param {
    num_output: 48
    pad: 0
    kernel_size: 1
    stride: 1
  }
}
layer {
  name: "res3a_branch2b_core"
  type: "Convolution"
  bottom: "res3a_branch2b_S"
  top: "res3a_branch2b_core"
  convolution_param {
    num_output: 39
    pad: 1
    kernel_size: 3
    stride: 1
  }
}
layer {
  name: "res3a_branch2b_T"
  type: "Convolution"
  bottom: "res3a_branch2b_core"
  top: "res3a_branch2b_T"
  convolution_param {
    num_output: 128
    pad: 0
    kernel_size: 1
    stride: 1
  }
}
layer {
  name: "bn3a_branch2b"
  type: "BatchNorm"
  bottom: "res3a_branch2b_T"
  top: "res3a_branch2b_T"
  batch_norm_param {
    moving_average_fraction: 0.9
  }
}
layer {
  name: "scale3a_branch2b"
  type: "Scale"
  bottom: "res3a_branch2b_T"
  top: "res3a_branch2b_T"
  scale_param {
    bias_term: true
  }
}
layer {
  name: "res3a"
  type: "Eltwise"
  bottom: "res3a_branch1"
  bottom: "res3a_branch2b_T"
  top: "res3a"
  eltwise_param {
    operation: SUM
  }
}
layer {
  name: "res3a_relu"
  type: "ReLU"
  bottom: "res3a"
  top: "res3a"
}
layer {
  name: "res3b_branch2a_S"
  type: "Convolution"
  bottom: "res3a"
  top: "res3b_branch2a_S"
  convolution_param {
    num_output: 40
    pad: 0
    kernel_size: 1
    stride: 1
  }
}
layer {
  name: "res3b_branch2a_core"
  type: "Convolution"
  bottom: "res3b_branch2a_S"
  top: "res3b_branch2a_core"
  convolution_param {
    num_output: 32
    pad: 1
    kernel_size: 3
    stride: 1
  }
}
layer {
  name: "res3b_branch2a_T"
  type: "Convolution"
  bottom: "res3b_branch2a_core"
  top: "res3b_branch2a_T"
  convolution_param {
    num_output: 128
    pad: 0
    kernel_size: 1
    stride: 1
  }
}
layer {
  name: "bn3b_branch2a"
  type: "BatchNorm"
  bottom: "res3b_branch2a_T"
  top: "res3b_branch2a_T"
  batch_norm_param {
    moving_average_fraction: 0.9
  }
}
layer {
  name: "scale3b_branch2a"
  type: "Scale"
  bottom: "res3b_branch2a_T"
  top: "res3b_branch2a_T"
  scale_param {
    bias_term: true
  }
}
layer {
  name: "res3b_branch2a_relu"
  type: "ReLU"
  bottom: "res3b_branch2a_T"
  top: "res3b_branch2a_T"
}
layer {
  name: "res3b_branch2b_S"
  type: "Convolution"
  bottom: "res3b_branch2a_T"
  top: "res3b_branch2b_S"
  convolution_param {
    num_output: 28
    pad: 0
    kernel_size: 1
    stride: 1
  }
}
layer {
  name: "res3b_branch2b_core"
  type: "Convolution"
  bottom: "res3b_branch2b_S"
  top: "res3b_branch2b_core"
  convolution_param {
    num_output: 34
    pad: 1
    kernel_size: 3
    stride: 1
  }
}
layer {
  name: "res3b_branch2b_T"
  type: "Convolution"
  bottom: "res3b_branch2b_core"
  top: "res3b_branch2b_T"
  convolution_param {
    num_output: 128
    pad: 0
    kernel_size: 1
    stride: 1
  }
}
layer {
  name: "bn3b_branch2b"
  type: "BatchNorm"
  bottom: "res3b_branch2b_T"
  top: "res3b_branch2b_T"
  batch_norm_param {
    moving_average_fraction: 0.9
  }
}
layer {
  name: "scale3b_branch2b"
  type: "Scale"
  bottom: "res3b_branch2b_T"
  top: "res3b_branch2b_T"
  scale_param {
    bias_term: true
  }
}
layer {
  name: "res3b"
  type: "Eltwise"
  bottom: "res3a"
  bottom: "res3b_branch2b_T"
  top: "res3b"
  eltwise_param {
    operation: SUM
  }
}
layer {
  name: "res3b_relu"
  type: "ReLU"
  bottom: "res3b"
  top: "res3b"
}
layer {
  name: "res4a_branch1"
  type: "Convolution"
  bottom: "res3b"
  top: "res4a_branch1"
  convolution_param {
    num_output: 256
    bias_term: false
    pad: 0
    kernel_size: 1
    stride: 2
    weight_filler {
      type: "msra"
    }
  }
}
layer {
  name: "bn4a_branch1"
  type: "BatchNorm"
  bottom: "res4a_branch1"
  top: "res4a_branch1"
  batch_norm_param {
    moving_average_fraction: 0.9
  }
}
layer {
  name: "scale4a_branch1"
  type: "Scale"
  bottom: "res4a_branch1"
  top: "res4a_branch1"
  scale_param {
    bias_term: true
  }
}
layer {
  name: "res4a_branch2a_S"
  type: "Convolution"
  bottom: "res3b"
  top: "res4a_branch2a_S"
  convolution_param {
    num_output: 50
    pad: 0
    kernel_size: 1
    stride: 1
  }
}
layer {
  name: "res4a_branch2a_core"
  type: "Convolution"
  bottom: "res4a_branch2a_S"
  top: "res4a_branch2a_core"
  convolution_param {
    num_output: 67
    pad: 1
    kernel_size: 3
    stride: 2
  }
}
layer {
  name: "res4a_branch2a_T"
  type: "Convolution"
  bottom: "res4a_branch2a_core"
  top: "res4a_branch2a_T"
  convolution_param {
    num_output: 256
    pad: 0
    kernel_size: 1
    stride: 1
  }
}
layer {
  name: "bn4a_branch2a"
  type: "BatchNorm"
  bottom: "res4a_branch2a_T"
  top: "res4a_branch2a_T"
  batch_norm_param {
    moving_average_fraction: 0.9
  }
}
layer {
  name: "scale4a_branch2a"
  type: "Scale"
  bottom: "res4a_branch2a_T"
  top: "res4a_branch2a_T"
  scale_param {
    bias_term: true
  }
}
layer {
  name: "res4a_branch2a_relu"
  type: "ReLU"
  bottom: "res4a_branch2a_T"
  top: "res4a_branch2a_T"
}
layer {
  name: "res4a_branch2b_S"
  type: "Convolution"
  bottom: "res4a_branch2a_T"
  top: "res4a_branch2b_S"
  convolution_param {
    num_output: 69
    pad: 0
    kernel_size: 1
    stride: 1
  }
}
layer {
  name: "res4a_branch2b_core"
  type: "Convolution"
  bottom: "res4a_branch2b_S"
  top: "res4a_branch2b_core"
  convolution_param {
    num_output: 60
    pad: 1
    kernel_size: 3
    stride: 1
  }
}
layer {
  name: "res4a_branch2b_T"
  type: "Convolution"
  bottom: "res4a_branch2b_core"
  top: "res4a_branch2b_T"
  convolution_param {
    num_output: 256
    pad: 0
    kernel_size: 1
    stride: 1
  }
}
layer {
  name: "bn4a_branch2b"
  type: "BatchNorm"
  bottom: "res4a_branch2b_T"
  top: "res4a_branch2b_T"
  batch_norm_param {
    moving_average_fraction: 0.9
  }
}
layer {
  name: "scale4a_branch2b"
  type: "Scale"
  bottom: "res4a_branch2b_T"
  top: "res4a_branch2b_T"
  scale_param {
    bias_term: true
  }
}
layer {
  name: "res4a"
  type: "Eltwise"
  bottom: "res4a_branch1"
  bottom: "res4a_branch2b_T"
  top: "res4a"
  eltwise_param {
    operation: SUM
  }
}
layer {
  name: "res4a_relu"
  type: "ReLU"
  bottom: "res4a"
  top: "res4a"
}
layer {
  name: "res4b_branch2a_S"
  type: "Convolution"
  bottom: "res4a"
  top: "res4b_branch2a_S"
  convolution_param {
    num_output: 64
    pad: 0
    kernel_size: 1
    stride: 1
  }
}
layer {
  name: "res4b_branch2a_core"
  type: "Convolution"
  bottom: "res4b_branch2a_S"
  top: "res4b_branch2a_core"
  convolution_param {
    num_output: 51
    pad: 1
    kernel_size: 3
    stride: 1
  }
}
layer {
  name: "res4b_branch2a_T"
  type: "Convolution"
  bottom: "res4b_branch2a_core"
  top: "res4b_branch2a_T"
  convolution_param {
    num_output: 256
    pad: 0
    kernel_size: 1
    stride: 1
  }
}
layer {
  name: "bn4b_branch2a"
  type: "BatchNorm"
  bottom: "res4b_branch2a_T"
  top: "res4b_branch2a_T"
  batch_norm_param {
    moving_average_fraction: 0.9
  }
}
layer {
  name: "scale4b_branch2a"
  type: "Scale"
  bottom: "res4b_branch2a_T"
  top: "res4b_branch2a_T"
  scale_param {
    bias_term: true
  }
}
layer {
  name: "res4b_branch2a_relu"
  type: "ReLU"
  bottom: "res4b_branch2a_T"
  top: "res4b_branch2a_T"
}
layer {
  name: "res4b_branch2b_S"
  type: "Convolution"
  bottom: "res4b_branch2a_T"
  top: "res4b_branch2b_S"
  convolution_param {
    num_output: 47
    pad: 0
    kernel_size: 1
    stride: 1
  }
}
layer {
  name: "res4b_branch2b_core"
  type: "Convolution"
  bottom: "res4b_branch2b_S"
  top: "res4b_branch2b_core"
  convolution_param {
    num_output: 64
    pad: 1
    kernel_size: 3
    stride: 1
  }
}
layer {
  name: "res4b_branch2b_T"
  type: "Convolution"
  bottom: "res4b_branch2b_core"
  top: "res4b_branch2b_T"
  convolution_param {
    num_output: 256
    pad: 0
    kernel_size: 1
    stride: 1
  }
}
layer {
  name: "bn4b_branch2b"
  type: "BatchNorm"
  bottom: "res4b_branch2b_T"
  top: "res4b_branch2b_T"
  batch_norm_param {
    moving_average_fraction: 0.9
  }
}
layer {
  name: "scale4b_branch2b"
  type: "Scale"
  bottom: "res4b_branch2b_T"
  top: "res4b_branch2b_T"
  scale_param {
    bias_term: true
  }
}
layer {
  name: "res4b"
  type: "Eltwise"
  bottom: "res4a"
  bottom: "res4b_branch2b_T"
  top: "res4b"
  eltwise_param {
    operation: SUM
  }
}
layer {
  name: "res4b_relu"
  type: "ReLU"
  bottom: "res4b"
  top: "res4b"
}
layer {
  name: "res5a_branch1"
  type: "Convolution"
  bottom: "res4b"
  top: "res5a_branch1"
  convolution_param {
    num_output: 512
    bias_term: false
    pad: 0
    kernel_size: 1
    stride: 2
    weight_filler {
      type: "msra"
    }
  }
}
layer {
  name: "bn5a_branch1"
  type: "BatchNorm"
  bottom: "res5a_branch1"
  top: "res5a_branch1"
  batch_norm_param {
    moving_average_fraction: 0.9
  }
}
layer {
  name: "scale5a_branch1"
  type: "Scale"
  bottom: "res5a_branch1"
  top: "res5a_branch1"
  scale_param {
    bias_term: true
  }
}
layer {
  name: "res5a_branch2a_S"
  type: "Convolution"
  bottom: "res4b"
  top: "res5a_branch2a_S"
  convolution_param {
    num_output: 88
    pad: 0
    kernel_size: 1
    stride: 1
  }
}
layer {
  name: "res5a_branch2a_core"
  type: "Convolution"
  bottom: "res5a_branch2a_S"
  top: "res5a_branch2a_core"
  convolution_param {
    num_output: 141
    pad: 1
    kernel_size: 3
    stride: 2
  }
}
layer {
  name: "res5a_branch2a_T"
  type: "Convolution"
  bottom: "res5a_branch2a_core"
  top: "res5a_branch2a_T"
  convolution_param {
    num_output: 512
    pad: 0
    kernel_size: 1
    stride: 1
  }
}
layer {
  name: "bn5a_branch2a"
  type: "BatchNorm"
  bottom: "res5a_branch2a_T"
  top: "res5a_branch2a_T"
  batch_norm_param {
    moving_average_fraction: 0.9
  }
}
layer {
  name: "scale5a_branch2a"
  type: "Scale"
  bottom: "res5a_branch2a_T"
  top: "res5a_branch2a_T"
  scale_param {
    bias_term: true
  }
}
layer {
  name: "res5a_branch2a_relu"
  type: "ReLU"
  bottom: "res5a_branch2a_T"
  top: "res5a_branch2a_T"
}
layer {
  name: "res5a_branch2b_S"
  type: "Convolution"
  bottom: "res5a_branch2a_T"
  top: "res5a_branch2b_S"
  convolution_param {
    num_output: 122
    pad: 0
    kernel_size: 1
    stride: 1
  }
}
layer {
  name: "res5a_branch2b_core"
  type: "Convolution"
  bottom: "res5a_branch2b_S"
  top: "res5a_branch2b_core"
  convolution_param {
    num_output: 94
    pad: 1
    kernel_size: 3
    stride: 1
  }
}
layer {
  name: "res5a_branch2b_T"
  type: "Convolution"
  bottom: "res5a_branch2b_core"
  top: "res5a_branch2b_T"
  convolution_param {
    num_output: 512
    pad: 0
    kernel_size: 1
    stride: 1
  }
}
layer {
  name: "bn5a_branch2b"
  type: "BatchNorm"
  bottom: "res5a_branch2b_T"
  top: "res5a_branch2b_T"
  batch_norm_param {
    moving_average_fraction: 0.9
  }
}
layer {
  name: "scale5a_branch2b"
  type: "Scale"
  bottom: "res5a_branch2b_T"
  top: "res5a_branch2b_T"
  scale_param {
    bias_term: true
  }
}
layer {
  name: "res5a"
  type: "Eltwise"
  bottom: "res5a_branch1"
  bottom: "res5a_branch2b_T"
  top: "res5a"
  eltwise_param {
    operation: SUM
  }
}
layer {
  name: "res5a_relu"
  type: "ReLU"
  bottom: "res5a"
  top: "res5a"
}
layer {
  name: "res5b_branch2a_S"
  type: "Convolution"
  bottom: "res5a"
  top: "res5b_branch2a_S"
  convolution_param {
    num_output: 159
    pad: 0
    kernel_size: 1
    stride: 1
  }
}
layer {
  name: "res5b_branch2a_core"
  type: "Convolution"
  bottom: "res5b_branch2a_S"
  top: "res5b_branch2a_core"
  convolution_param {
    num_output: 157
    pad: 1
    kernel_size: 3
    stride: 1
  }
}
layer {
  name: "res5b_branch2a_T"
  type: "Convolution"
  bottom: "res5b_branch2a_core"
  top: "res5b_branch2a_T"
  convolution_param {
    num_output: 512
    pad: 0
    kernel_size: 1
    stride: 1
  }
}
layer {
  name: "bn5b_branch2a"
  type: "BatchNorm"
  bottom: "res5b_branch2a_T"
  top: "res5b_branch2a_T"
  batch_norm_param {
    moving_average_fraction: 0.9
  }
}
layer {
  name: "scale5b_branch2a"
  type: "Scale"
  bottom: "res5b_branch2a_T"
  top: "res5b_branch2a_T"
  scale_param {
    bias_term: true
  }
}
layer {
  name: "res5b_branch2a_relu"
  type: "ReLU"
  bottom: "res5b_branch2a_T"
  top: "res5b_branch2a_T"
}
layer {
  name: "res5b_branch2b_S"
  type: "Convolution"
  bottom: "res5b_branch2a_T"
  top: "res5b_branch2b_S"
  convolution_param {
    num_output: 247
    pad: 0
    kernel_size: 1
    stride: 1
  }
}
layer {
  name: "res5b_branch2b_core"
  type: "Convolution"
  bottom: "res5b_branch2b_S"
  top: "res5b_branch2b_core"
  convolution_param {
    num_output: 259
    pad: 1
    kernel_size: 3
    stride: 1
  }
}
layer {
  name: "res5b_branch2b_T"
  type: "Convolution"
  bottom: "res5b_branch2b_core"
  top: "res5b_branch2b_T"
  convolution_param {
    num_output: 512
    pad: 0
    kernel_size: 1
    stride: 1
  }
}
layer {
  name: "bn5b_branch2b"
  type: "BatchNorm"
  bottom: "res5b_branch2b_T"
  top: "res5b_branch2b_T"
  batch_norm_param {
    moving_average_fraction: 0.9
  }
}
layer {
  name: "scale5b_branch2b"
  type: "Scale"
  bottom: "res5b_branch2b_T"
  top: "res5b_branch2b_T"
  scale_param {
    bias_term: true
  }
}
layer {
  name: "res5b"
  type: "Eltwise"
  bottom: "res5a"
  bottom: "res5b_branch2b_T"
  top: "res5b"
  eltwise_param {
    operation: SUM
  }
}
layer {
  name: "res5b_relu"
  type: "ReLU"
  bottom: "res5b"
  top: "res5b"
}
layer {
  name: "pool5"
  type: "Pooling"
  bottom: "res5b"
  top: "pool5"
  pooling_param {
    pool: AVE
    kernel_size: 7
    stride: 1
  }
}
layer {
  name: "fc1000"
  type: "InnerProduct"
  bottom: "pool5"
  top: "fc1000"
  param {
    lr_mult: 1
    decay_mult: 1
  }
  param {
    lr_mult: 2
    decay_mult: 1
  }
  inner_product_param {
    num_output: 1000
    weight_filler {
      type: "xavier"
    }
    bias_filler {
      type: "constant"
      value: 0
    }
  }
}
layer {
  name: "loss"
  type: "SoftmaxWithLoss"
  bottom: "fc1000"
  bottom: "label"
  top: "loss"
}
I0918 10:56:13.024883 29801 layer_factory.hpp:77] Creating layer data
I0918 10:56:13.025211 29801 db_lmdb.cpp:35] Opened lmdb /home/gunju/workspace/caffe/examples/imagenet/ilsvrc12_train_lmdb
I0918 10:56:13.104640 29801 net.cpp:86] Creating Layer data
I0918 10:56:13.104699 29801 net.cpp:382] data -> data
I0918 10:56:13.104760 29801 net.cpp:382] data -> label
I0918 10:56:13.108819 29801 data_layer.cpp:45] output data size: 256,3,224,224
I0918 10:56:13.352663 29801 net.cpp:124] Setting up data
I0918 10:56:13.352685 29801 net.cpp:131] Top shape: 256 3 224 224 (38535168)
I0918 10:56:13.352689 29801 net.cpp:131] Top shape: 256 (256)
I0918 10:56:13.352692 29801 net.cpp:139] Memory required for data: 154141696
I0918 10:56:13.352699 29801 layer_factory.hpp:77] Creating layer conv1
I0918 10:56:13.352713 29801 net.cpp:86] Creating Layer conv1
I0918 10:56:13.352717 29801 net.cpp:408] conv1 <- data
I0918 10:56:13.352727 29801 net.cpp:382] conv1 -> conv1
I0918 10:56:18.963680 29801 net.cpp:124] Setting up conv1
I0918 10:56:18.963723 29801 net.cpp:131] Top shape: 256 64 112 112 (205520896)
I0918 10:56:18.963730 29801 net.cpp:139] Memory required for data: 976225280
I0918 10:56:18.963752 29801 layer_factory.hpp:77] Creating layer bn_conv1
I0918 10:56:18.963780 29801 net.cpp:86] Creating Layer bn_conv1
I0918 10:56:18.963789 29801 net.cpp:408] bn_conv1 <- conv1
I0918 10:56:18.963801 29801 net.cpp:369] bn_conv1 -> conv1 (in-place)
I0918 10:56:18.964280 29801 net.cpp:124] Setting up bn_conv1
I0918 10:56:18.964309 29801 net.cpp:131] Top shape: 256 64 112 112 (205520896)
I0918 10:56:18.964318 29801 net.cpp:139] Memory required for data: 1798308864
I0918 10:56:18.964336 29801 layer_factory.hpp:77] Creating layer scale_conv1
I0918 10:56:18.964349 29801 net.cpp:86] Creating Layer scale_conv1
I0918 10:56:18.964357 29801 net.cpp:408] scale_conv1 <- conv1
I0918 10:56:18.964370 29801 net.cpp:369] scale_conv1 -> conv1 (in-place)
I0918 10:56:18.964521 29801 layer_factory.hpp:77] Creating layer scale_conv1
I0918 10:56:18.964759 29801 net.cpp:124] Setting up scale_conv1
I0918 10:56:18.964777 29801 net.cpp:131] Top shape: 256 64 112 112 (205520896)
I0918 10:56:18.964783 29801 net.cpp:139] Memory required for data: 2620392448
I0918 10:56:18.964797 29801 layer_factory.hpp:77] Creating layer conv1_relu
I0918 10:56:18.964808 29801 net.cpp:86] Creating Layer conv1_relu
I0918 10:56:18.964818 29801 net.cpp:408] conv1_relu <- conv1
I0918 10:56:18.964830 29801 net.cpp:369] conv1_relu -> conv1 (in-place)
I0918 10:56:18.965898 29801 net.cpp:124] Setting up conv1_relu
I0918 10:56:18.965919 29801 net.cpp:131] Top shape: 256 64 112 112 (205520896)
I0918 10:56:18.965926 29801 net.cpp:139] Memory required for data: 3442476032
I0918 10:56:18.965934 29801 layer_factory.hpp:77] Creating layer pool1
I0918 10:56:18.965943 29801 net.cpp:86] Creating Layer pool1
I0918 10:56:18.965950 29801 net.cpp:408] pool1 <- conv1
I0918 10:56:18.965963 29801 net.cpp:382] pool1 -> pool1
I0918 10:56:18.966068 29801 net.cpp:124] Setting up pool1
I0918 10:56:18.966090 29801 net.cpp:131] Top shape: 256 64 56 56 (51380224)
I0918 10:56:18.966104 29801 net.cpp:139] Memory required for data: 3647996928
I0918 10:56:18.966114 29801 layer_factory.hpp:77] Creating layer pool1_pool1_0_split
I0918 10:56:18.966126 29801 net.cpp:86] Creating Layer pool1_pool1_0_split
I0918 10:56:18.966136 29801 net.cpp:408] pool1_pool1_0_split <- pool1
I0918 10:56:18.966151 29801 net.cpp:382] pool1_pool1_0_split -> pool1_pool1_0_split_0
I0918 10:56:18.966169 29801 net.cpp:382] pool1_pool1_0_split -> pool1_pool1_0_split_1
I0918 10:56:18.966251 29801 net.cpp:124] Setting up pool1_pool1_0_split
I0918 10:56:18.966270 29801 net.cpp:131] Top shape: 256 64 56 56 (51380224)
I0918 10:56:18.966282 29801 net.cpp:131] Top shape: 256 64 56 56 (51380224)
I0918 10:56:18.966291 29801 net.cpp:139] Memory required for data: 4059038720
I0918 10:56:18.966300 29801 layer_factory.hpp:77] Creating layer res2a_branch1
I0918 10:56:18.966325 29801 net.cpp:86] Creating Layer res2a_branch1
I0918 10:56:18.966341 29801 net.cpp:408] res2a_branch1 <- pool1_pool1_0_split_0
I0918 10:56:18.966359 29801 net.cpp:382] res2a_branch1 -> res2a_branch1
I0918 10:56:18.970137 29801 net.cpp:124] Setting up res2a_branch1
I0918 10:56:18.970165 29801 net.cpp:131] Top shape: 256 64 56 56 (51380224)
I0918 10:56:18.970204 29801 net.cpp:139] Memory required for data: 4264559616
I0918 10:56:18.970219 29801 layer_factory.hpp:77] Creating layer bn2a_branch1
I0918 10:56:18.970242 29801 net.cpp:86] Creating Layer bn2a_branch1
I0918 10:56:18.970252 29801 net.cpp:408] bn2a_branch1 <- res2a_branch1
I0918 10:56:18.970269 29801 net.cpp:369] bn2a_branch1 -> res2a_branch1 (in-place)
I0918 10:56:18.970624 29801 net.cpp:124] Setting up bn2a_branch1
I0918 10:56:18.970641 29801 net.cpp:131] Top shape: 256 64 56 56 (51380224)
I0918 10:56:18.970649 29801 net.cpp:139] Memory required for data: 4470080512
I0918 10:56:18.970662 29801 layer_factory.hpp:77] Creating layer scale2a_branch1
I0918 10:56:18.970672 29801 net.cpp:86] Creating Layer scale2a_branch1
I0918 10:56:18.970679 29801 net.cpp:408] scale2a_branch1 <- res2a_branch1
I0918 10:56:18.970690 29801 net.cpp:369] scale2a_branch1 -> res2a_branch1 (in-place)
I0918 10:56:18.970762 29801 layer_factory.hpp:77] Creating layer scale2a_branch1
I0918 10:56:18.970993 29801 net.cpp:124] Setting up scale2a_branch1
I0918 10:56:18.971009 29801 net.cpp:131] Top shape: 256 64 56 56 (51380224)
I0918 10:56:18.971015 29801 net.cpp:139] Memory required for data: 4675601408
I0918 10:56:18.971029 29801 layer_factory.hpp:77] Creating layer res2a_branch2a_S
I0918 10:56:18.971052 29801 net.cpp:86] Creating Layer res2a_branch2a_S
I0918 10:56:18.971062 29801 net.cpp:408] res2a_branch2a_S <- pool1_pool1_0_split_1
I0918 10:56:18.971083 29801 net.cpp:382] res2a_branch2a_S -> res2a_branch2a_S
I0918 10:56:18.975569 29801 net.cpp:124] Setting up res2a_branch2a_S
I0918 10:56:18.975595 29801 net.cpp:131] Top shape: 256 31 56 56 (24887296)
I0918 10:56:18.975603 29801 net.cpp:139] Memory required for data: 4775150592
I0918 10:56:18.975646 29801 layer_factory.hpp:77] Creating layer res2a_branch2a_core
I0918 10:56:18.975666 29801 net.cpp:86] Creating Layer res2a_branch2a_core
I0918 10:56:18.975678 29801 net.cpp:408] res2a_branch2a_core <- res2a_branch2a_S
I0918 10:56:18.975700 29801 net.cpp:382] res2a_branch2a_core -> res2a_branch2a_core
I0918 10:56:18.978454 29801 net.cpp:124] Setting up res2a_branch2a_core
I0918 10:56:18.978477 29801 net.cpp:131] Top shape: 256 29 56 56 (23281664)
I0918 10:56:18.978483 29801 net.cpp:139] Memory required for data: 4868277248
I0918 10:56:18.978492 29801 layer_factory.hpp:77] Creating layer res2a_branch2a_T
I0918 10:56:18.978503 29801 net.cpp:86] Creating Layer res2a_branch2a_T
I0918 10:56:18.978509 29801 net.cpp:408] res2a_branch2a_T <- res2a_branch2a_core
I0918 10:56:18.978519 29801 net.cpp:382] res2a_branch2a_T -> res2a_branch2a_T
I0918 10:56:18.981035 29801 net.cpp:124] Setting up res2a_branch2a_T
I0918 10:56:18.981055 29801 net.cpp:131] Top shape: 256 64 56 56 (51380224)
I0918 10:56:18.981060 29801 net.cpp:139] Memory required for data: 5073798144
I0918 10:56:18.981071 29801 layer_factory.hpp:77] Creating layer bn2a_branch2a
I0918 10:56:18.981082 29801 net.cpp:86] Creating Layer bn2a_branch2a
I0918 10:56:18.981088 29801 net.cpp:408] bn2a_branch2a <- res2a_branch2a_T
I0918 10:56:18.981096 29801 net.cpp:369] bn2a_branch2a -> res2a_branch2a_T (in-place)
I0918 10:56:18.981362 29801 net.cpp:124] Setting up bn2a_branch2a
I0918 10:56:18.981376 29801 net.cpp:131] Top shape: 256 64 56 56 (51380224)
I0918 10:56:18.981381 29801 net.cpp:139] Memory required for data: 5279319040
I0918 10:56:18.981390 29801 layer_factory.hpp:77] Creating layer scale2a_branch2a
I0918 10:56:18.981400 29801 net.cpp:86] Creating Layer scale2a_branch2a
I0918 10:56:18.981406 29801 net.cpp:408] scale2a_branch2a <- res2a_branch2a_T
I0918 10:56:18.981413 29801 net.cpp:369] scale2a_branch2a -> res2a_branch2a_T (in-place)
I0918 10:56:18.981467 29801 layer_factory.hpp:77] Creating layer scale2a_branch2a
I0918 10:56:18.981659 29801 net.cpp:124] Setting up scale2a_branch2a
I0918 10:56:18.981673 29801 net.cpp:131] Top shape: 256 64 56 56 (51380224)
I0918 10:56:18.981678 29801 net.cpp:139] Memory required for data: 5484839936
I0918 10:56:18.981685 29801 layer_factory.hpp:77] Creating layer res2a_branch2a_relu
I0918 10:56:18.981693 29801 net.cpp:86] Creating Layer res2a_branch2a_relu
I0918 10:56:18.981698 29801 net.cpp:408] res2a_branch2a_relu <- res2a_branch2a_T
I0918 10:56:18.981705 29801 net.cpp:369] res2a_branch2a_relu -> res2a_branch2a_T (in-place)
I0918 10:56:18.982487 29801 net.cpp:124] Setting up res2a_branch2a_relu
I0918 10:56:18.982506 29801 net.cpp:131] Top shape: 256 64 56 56 (51380224)
I0918 10:56:18.982511 29801 net.cpp:139] Memory required for data: 5690360832
I0918 10:56:18.982515 29801 layer_factory.hpp:77] Creating layer res2a_branch2b_S
I0918 10:56:18.982529 29801 net.cpp:86] Creating Layer res2a_branch2b_S
I0918 10:56:18.982535 29801 net.cpp:408] res2a_branch2b_S <- res2a_branch2a_T
I0918 10:56:18.982545 29801 net.cpp:382] res2a_branch2b_S -> res2a_branch2b_S
I0918 10:56:18.985770 29801 net.cpp:124] Setting up res2a_branch2b_S
I0918 10:56:18.985790 29801 net.cpp:131] Top shape: 256 23 56 56 (18464768)
I0918 10:56:18.985795 29801 net.cpp:139] Memory required for data: 5764219904
I0918 10:56:18.985801 29801 layer_factory.hpp:77] Creating layer res2a_branch2b_core
I0918 10:56:18.985815 29801 net.cpp:86] Creating Layer res2a_branch2b_core
I0918 10:56:18.985819 29801 net.cpp:408] res2a_branch2b_core <- res2a_branch2b_S
I0918 10:56:18.985826 29801 net.cpp:382] res2a_branch2b_core -> res2a_branch2b_core
I0918 10:56:18.987972 29801 net.cpp:124] Setting up res2a_branch2b_core
I0918 10:56:18.987985 29801 net.cpp:131] Top shape: 256 22 56 56 (17661952)
I0918 10:56:18.987990 29801 net.cpp:139] Memory required for data: 5834867712
I0918 10:56:18.987995 29801 layer_factory.hpp:77] Creating layer res2a_branch2b_T
I0918 10:56:18.988004 29801 net.cpp:86] Creating Layer res2a_branch2b_T
I0918 10:56:18.988026 29801 net.cpp:408] res2a_branch2b_T <- res2a_branch2b_core
I0918 10:56:18.988032 29801 net.cpp:382] res2a_branch2b_T -> res2a_branch2b_T
I0918 10:56:18.989753 29801 net.cpp:124] Setting up res2a_branch2b_T
I0918 10:56:18.989766 29801 net.cpp:131] Top shape: 256 64 56 56 (51380224)
I0918 10:56:18.989770 29801 net.cpp:139] Memory required for data: 6040388608
I0918 10:56:18.989776 29801 layer_factory.hpp:77] Creating layer bn2a_branch2b
I0918 10:56:18.989784 29801 net.cpp:86] Creating Layer bn2a_branch2b
I0918 10:56:18.989789 29801 net.cpp:408] bn2a_branch2b <- res2a_branch2b_T
I0918 10:56:18.989794 29801 net.cpp:369] bn2a_branch2b -> res2a_branch2b_T (in-place)
I0918 10:56:18.989989 29801 net.cpp:124] Setting up bn2a_branch2b
I0918 10:56:18.990000 29801 net.cpp:131] Top shape: 256 64 56 56 (51380224)
I0918 10:56:18.990003 29801 net.cpp:139] Memory required for data: 6245909504
I0918 10:56:18.990010 29801 layer_factory.hpp:77] Creating layer scale2a_branch2b
I0918 10:56:18.990015 29801 net.cpp:86] Creating Layer scale2a_branch2b
I0918 10:56:18.990020 29801 net.cpp:408] scale2a_branch2b <- res2a_branch2b_T
I0918 10:56:18.990025 29801 net.cpp:369] scale2a_branch2b -> res2a_branch2b_T (in-place)
I0918 10:56:18.990053 29801 layer_factory.hpp:77] Creating layer scale2a_branch2b
I0918 10:56:18.990185 29801 net.cpp:124] Setting up scale2a_branch2b
I0918 10:56:18.990195 29801 net.cpp:131] Top shape: 256 64 56 56 (51380224)
I0918 10:56:18.990200 29801 net.cpp:139] Memory required for data: 6451430400
I0918 10:56:18.990209 29801 layer_factory.hpp:77] Creating layer res2a
I0918 10:56:18.990224 29801 net.cpp:86] Creating Layer res2a
I0918 10:56:18.990228 29801 net.cpp:408] res2a <- res2a_branch1
I0918 10:56:18.990233 29801 net.cpp:408] res2a <- res2a_branch2b_T
I0918 10:56:18.990238 29801 net.cpp:382] res2a -> res2a
I0918 10:56:18.990262 29801 net.cpp:124] Setting up res2a
I0918 10:56:18.990270 29801 net.cpp:131] Top shape: 256 64 56 56 (51380224)
I0918 10:56:18.990274 29801 net.cpp:139] Memory required for data: 6656951296
I0918 10:56:18.990279 29801 layer_factory.hpp:77] Creating layer res2a_relu
I0918 10:56:18.990288 29801 net.cpp:86] Creating Layer res2a_relu
I0918 10:56:18.990293 29801 net.cpp:408] res2a_relu <- res2a
I0918 10:56:18.990303 29801 net.cpp:369] res2a_relu -> res2a (in-place)
I0918 10:56:18.990881 29801 net.cpp:124] Setting up res2a_relu
I0918 10:56:18.990895 29801 net.cpp:131] Top shape: 256 64 56 56 (51380224)
I0918 10:56:18.990898 29801 net.cpp:139] Memory required for data: 6862472192
I0918 10:56:18.990901 29801 layer_factory.hpp:77] Creating layer res2a_res2a_relu_0_split
I0918 10:56:18.990909 29801 net.cpp:86] Creating Layer res2a_res2a_relu_0_split
I0918 10:56:18.990913 29801 net.cpp:408] res2a_res2a_relu_0_split <- res2a
I0918 10:56:18.990918 29801 net.cpp:382] res2a_res2a_relu_0_split -> res2a_res2a_relu_0_split_0
I0918 10:56:18.990926 29801 net.cpp:382] res2a_res2a_relu_0_split -> res2a_res2a_relu_0_split_1
I0918 10:56:18.990972 29801 net.cpp:124] Setting up res2a_res2a_relu_0_split
I0918 10:56:18.990983 29801 net.cpp:131] Top shape: 256 64 56 56 (51380224)
I0918 10:56:18.990989 29801 net.cpp:131] Top shape: 256 64 56 56 (51380224)
I0918 10:56:18.990994 29801 net.cpp:139] Memory required for data: 7273513984
I0918 10:56:18.990999 29801 layer_factory.hpp:77] Creating layer res2b_branch2a_S
I0918 10:56:18.991010 29801 net.cpp:86] Creating Layer res2b_branch2a_S
I0918 10:56:18.991017 29801 net.cpp:408] res2b_branch2a_S <- res2a_res2a_relu_0_split_0
I0918 10:56:18.991027 29801 net.cpp:382] res2b_branch2a_S -> res2b_branch2a_S
I0918 10:56:18.993649 29801 net.cpp:124] Setting up res2b_branch2a_S
I0918 10:56:18.993662 29801 net.cpp:131] Top shape: 256 24 56 56 (19267584)
I0918 10:56:18.993666 29801 net.cpp:139] Memory required for data: 7350584320
I0918 10:56:18.993672 29801 layer_factory.hpp:77] Creating layer res2b_branch2a_core
I0918 10:56:18.993681 29801 net.cpp:86] Creating Layer res2b_branch2a_core
I0918 10:56:18.993685 29801 net.cpp:408] res2b_branch2a_core <- res2b_branch2a_S
I0918 10:56:18.993705 29801 net.cpp:382] res2b_branch2a_core -> res2b_branch2a_core
I0918 10:56:18.995339 29801 net.cpp:124] Setting up res2b_branch2a_core
I0918 10:56:18.995352 29801 net.cpp:131] Top shape: 256 20 56 56 (16056320)
I0918 10:56:18.995355 29801 net.cpp:139] Memory required for data: 7414809600
I0918 10:56:18.995360 29801 layer_factory.hpp:77] Creating layer res2b_branch2a_T
I0918 10:56:18.995368 29801 net.cpp:86] Creating Layer res2b_branch2a_T
I0918 10:56:18.995371 29801 net.cpp:408] res2b_branch2a_T <- res2b_branch2a_core
I0918 10:56:18.995376 29801 net.cpp:382] res2b_branch2a_T -> res2b_branch2a_T
I0918 10:56:18.996914 29801 net.cpp:124] Setting up res2b_branch2a_T
I0918 10:56:18.996927 29801 net.cpp:131] Top shape: 256 64 56 56 (51380224)
I0918 10:56:18.996929 29801 net.cpp:139] Memory required for data: 7620330496
I0918 10:56:18.996934 29801 layer_factory.hpp:77] Creating layer bn2b_branch2a
I0918 10:56:18.996940 29801 net.cpp:86] Creating Layer bn2b_branch2a
I0918 10:56:18.996944 29801 net.cpp:408] bn2b_branch2a <- res2b_branch2a_T
I0918 10:56:18.996951 29801 net.cpp:369] bn2b_branch2a -> res2b_branch2a_T (in-place)
I0918 10:56:18.997126 29801 net.cpp:124] Setting up bn2b_branch2a
I0918 10:56:18.997135 29801 net.cpp:131] Top shape: 256 64 56 56 (51380224)
I0918 10:56:18.997138 29801 net.cpp:139] Memory required for data: 7825851392
I0918 10:56:18.997144 29801 layer_factory.hpp:77] Creating layer scale2b_branch2a
I0918 10:56:18.997149 29801 net.cpp:86] Creating Layer scale2b_branch2a
I0918 10:56:18.997153 29801 net.cpp:408] scale2b_branch2a <- res2b_branch2a_T
I0918 10:56:18.997157 29801 net.cpp:369] scale2b_branch2a -> res2b_branch2a_T (in-place)
I0918 10:56:18.997184 29801 layer_factory.hpp:77] Creating layer scale2b_branch2a
I0918 10:56:18.997308 29801 net.cpp:124] Setting up scale2b_branch2a
I0918 10:56:18.997319 29801 net.cpp:131] Top shape: 256 64 56 56 (51380224)
I0918 10:56:18.997323 29801 net.cpp:139] Memory required for data: 8031372288
I0918 10:56:18.997328 29801 layer_factory.hpp:77] Creating layer res2b_branch2a_relu
I0918 10:56:18.997332 29801 net.cpp:86] Creating Layer res2b_branch2a_relu
I0918 10:56:18.997335 29801 net.cpp:408] res2b_branch2a_relu <- res2b_branch2a_T
I0918 10:56:18.997341 29801 net.cpp:369] res2b_branch2a_relu -> res2b_branch2a_T (in-place)
I0918 10:56:18.997839 29801 net.cpp:124] Setting up res2b_branch2a_relu
I0918 10:56:18.997849 29801 net.cpp:131] Top shape: 256 64 56 56 (51380224)
I0918 10:56:18.997853 29801 net.cpp:139] Memory required for data: 8236893184
I0918 10:56:18.997855 29801 layer_factory.hpp:77] Creating layer res2b_branch2b_S
I0918 10:56:18.997861 29801 net.cpp:86] Creating Layer res2b_branch2b_S
I0918 10:56:18.997865 29801 net.cpp:408] res2b_branch2b_S <- res2b_branch2a_T
I0918 10:56:18.997870 29801 net.cpp:382] res2b_branch2b_S -> res2b_branch2b_S
I0918 10:56:19.000102 29801 net.cpp:124] Setting up res2b_branch2b_S
I0918 10:56:19.000114 29801 net.cpp:131] Top shape: 256 16 56 56 (12845056)
I0918 10:56:19.000118 29801 net.cpp:139] Memory required for data: 8288273408
I0918 10:56:19.000123 29801 layer_factory.hpp:77] Creating layer res2b_branch2b_core
I0918 10:56:19.000129 29801 net.cpp:86] Creating Layer res2b_branch2b_core
I0918 10:56:19.000133 29801 net.cpp:408] res2b_branch2b_core <- res2b_branch2b_S
I0918 10:56:19.000138 29801 net.cpp:382] res2b_branch2b_core -> res2b_branch2b_core
I0918 10:56:19.001693 29801 net.cpp:124] Setting up res2b_branch2b_core
I0918 10:56:19.001703 29801 net.cpp:131] Top shape: 256 18 56 56 (14450688)
I0918 10:56:19.001708 29801 net.cpp:139] Memory required for data: 8346076160
I0918 10:56:19.001711 29801 layer_factory.hpp:77] Creating layer res2b_branch2b_T
I0918 10:56:19.001724 29801 net.cpp:86] Creating Layer res2b_branch2b_T
I0918 10:56:19.001729 29801 net.cpp:408] res2b_branch2b_T <- res2b_branch2b_core
I0918 10:56:19.001732 29801 net.cpp:382] res2b_branch2b_T -> res2b_branch2b_T
I0918 10:56:19.003077 29801 net.cpp:124] Setting up res2b_branch2b_T
I0918 10:56:19.003085 29801 net.cpp:131] Top shape: 256 64 56 56 (51380224)
I0918 10:56:19.003101 29801 net.cpp:139] Memory required for data: 8551597056
I0918 10:56:19.003105 29801 layer_factory.hpp:77] Creating layer bn2b_branch2b
I0918 10:56:19.003113 29801 net.cpp:86] Creating Layer bn2b_branch2b
I0918 10:56:19.003115 29801 net.cpp:408] bn2b_branch2b <- res2b_branch2b_T
I0918 10:56:19.003118 29801 net.cpp:369] bn2b_branch2b -> res2b_branch2b_T (in-place)
I0918 10:56:19.003262 29801 net.cpp:124] Setting up bn2b_branch2b
I0918 10:56:19.003268 29801 net.cpp:131] Top shape: 256 64 56 56 (51380224)
I0918 10:56:19.003270 29801 net.cpp:139] Memory required for data: 8757117952
I0918 10:56:19.003275 29801 layer_factory.hpp:77] Creating layer scale2b_branch2b
I0918 10:56:19.003279 29801 net.cpp:86] Creating Layer scale2b_branch2b
I0918 10:56:19.003283 29801 net.cpp:408] scale2b_branch2b <- res2b_branch2b_T
I0918 10:56:19.003288 29801 net.cpp:369] scale2b_branch2b -> res2b_branch2b_T (in-place)
I0918 10:56:19.003306 29801 layer_factory.hpp:77] Creating layer scale2b_branch2b
I0918 10:56:19.003396 29801 net.cpp:124] Setting up scale2b_branch2b
I0918 10:56:19.003403 29801 net.cpp:131] Top shape: 256 64 56 56 (51380224)
I0918 10:56:19.003407 29801 net.cpp:139] Memory required for data: 8962638848
I0918 10:56:19.003409 29801 layer_factory.hpp:77] Creating layer res2b
I0918 10:56:19.003415 29801 net.cpp:86] Creating Layer res2b
I0918 10:56:19.003418 29801 net.cpp:408] res2b <- res2a_res2a_relu_0_split_1
I0918 10:56:19.003422 29801 net.cpp:408] res2b <- res2b_branch2b_T
I0918 10:56:19.003429 29801 net.cpp:382] res2b -> res2b
I0918 10:56:19.003446 29801 net.cpp:124] Setting up res2b
I0918 10:56:19.003450 29801 net.cpp:131] Top shape: 256 64 56 56 (51380224)
I0918 10:56:19.003453 29801 net.cpp:139] Memory required for data: 9168159744
I0918 10:56:19.003455 29801 layer_factory.hpp:77] Creating layer res2b_relu
I0918 10:56:19.003459 29801 net.cpp:86] Creating Layer res2b_relu
I0918 10:56:19.003463 29801 net.cpp:408] res2b_relu <- res2b
I0918 10:56:19.003469 29801 net.cpp:369] res2b_relu -> res2b (in-place)
I0918 10:56:19.003880 29801 net.cpp:124] Setting up res2b_relu
I0918 10:56:19.003890 29801 net.cpp:131] Top shape: 256 64 56 56 (51380224)
I0918 10:56:19.003892 29801 net.cpp:139] Memory required for data: 9373680640
I0918 10:56:19.003895 29801 layer_factory.hpp:77] Creating layer res2b_res2b_relu_0_split
I0918 10:56:19.003901 29801 net.cpp:86] Creating Layer res2b_res2b_relu_0_split
I0918 10:56:19.003903 29801 net.cpp:408] res2b_res2b_relu_0_split <- res2b
I0918 10:56:19.003906 29801 net.cpp:382] res2b_res2b_relu_0_split -> res2b_res2b_relu_0_split_0
I0918 10:56:19.003911 29801 net.cpp:382] res2b_res2b_relu_0_split -> res2b_res2b_relu_0_split_1
I0918 10:56:19.003937 29801 net.cpp:124] Setting up res2b_res2b_relu_0_split
I0918 10:56:19.003942 29801 net.cpp:131] Top shape: 256 64 56 56 (51380224)
I0918 10:56:19.003945 29801 net.cpp:131] Top shape: 256 64 56 56 (51380224)
I0918 10:56:19.003947 29801 net.cpp:139] Memory required for data: 9784722432
I0918 10:56:19.003950 29801 layer_factory.hpp:77] Creating layer res3a_branch1
I0918 10:56:19.003958 29801 net.cpp:86] Creating Layer res3a_branch1
I0918 10:56:19.003962 29801 net.cpp:408] res3a_branch1 <- res2b_res2b_relu_0_split_0
I0918 10:56:19.003968 29801 net.cpp:382] res3a_branch1 -> res3a_branch1
I0918 10:56:19.006048 29801 net.cpp:124] Setting up res3a_branch1
I0918 10:56:19.006059 29801 net.cpp:131] Top shape: 256 128 28 28 (25690112)
I0918 10:56:19.006062 29801 net.cpp:139] Memory required for data: 9887482880
I0918 10:56:19.006067 29801 layer_factory.hpp:77] Creating layer bn3a_branch1
I0918 10:56:19.006072 29801 net.cpp:86] Creating Layer bn3a_branch1
I0918 10:56:19.006075 29801 net.cpp:408] bn3a_branch1 <- res3a_branch1
I0918 10:56:19.006079 29801 net.cpp:369] bn3a_branch1 -> res3a_branch1 (in-place)
I0918 10:56:19.006215 29801 net.cpp:124] Setting up bn3a_branch1
I0918 10:56:19.006222 29801 net.cpp:131] Top shape: 256 128 28 28 (25690112)
I0918 10:56:19.006224 29801 net.cpp:139] Memory required for data: 9990243328
I0918 10:56:19.006229 29801 layer_factory.hpp:77] Creating layer scale3a_branch1
I0918 10:56:19.006245 29801 net.cpp:86] Creating Layer scale3a_branch1
I0918 10:56:19.006248 29801 net.cpp:408] scale3a_branch1 <- res3a_branch1
I0918 10:56:19.006253 29801 net.cpp:369] scale3a_branch1 -> res3a_branch1 (in-place)
I0918 10:56:19.006273 29801 layer_factory.hpp:77] Creating layer scale3a_branch1
I0918 10:56:19.006362 29801 net.cpp:124] Setting up scale3a_branch1
I0918 10:56:19.006371 29801 net.cpp:131] Top shape: 256 128 28 28 (25690112)
I0918 10:56:19.006374 29801 net.cpp:139] Memory required for data: 10093003776
I0918 10:56:19.006381 29801 layer_factory.hpp:77] Creating layer res3a_branch2a_S
I0918 10:56:19.006388 29801 net.cpp:86] Creating Layer res3a_branch2a_S
I0918 10:56:19.006392 29801 net.cpp:408] res3a_branch2a_S <- res2b_res2b_relu_0_split_1
I0918 10:56:19.006397 29801 net.cpp:382] res3a_branch2a_S -> res3a_branch2a_S
I0918 10:56:19.007755 29801 net.cpp:124] Setting up res3a_branch2a_S
I0918 10:56:19.007764 29801 net.cpp:131] Top shape: 256 32 56 56 (25690112)
I0918 10:56:19.007767 29801 net.cpp:139] Memory required for data: 10195764224
I0918 10:56:19.007771 29801 layer_factory.hpp:77] Creating layer res3a_branch2a_core
I0918 10:56:19.007779 29801 net.cpp:86] Creating Layer res3a_branch2a_core
I0918 10:56:19.007782 29801 net.cpp:408] res3a_branch2a_core <- res3a_branch2a_S
I0918 10:56:19.007787 29801 net.cpp:382] res3a_branch2a_core -> res3a_branch2a_core
I0918 10:56:19.009057 29801 net.cpp:124] Setting up res3a_branch2a_core
I0918 10:56:19.009080 29801 net.cpp:131] Top shape: 256 16 28 28 (3211264)
I0918 10:56:19.009083 29801 net.cpp:139] Memory required for data: 10208609280
I0918 10:56:19.009095 29801 layer_factory.hpp:77] Creating layer res3a_branch2a_T
I0918 10:56:19.009104 29801 net.cpp:86] Creating Layer res3a_branch2a_T
I0918 10:56:19.009107 29801 net.cpp:408] res3a_branch2a_T <- res3a_branch2a_core
I0918 10:56:19.009111 29801 net.cpp:382] res3a_branch2a_T -> res3a_branch2a_T
I0918 10:56:19.011255 29801 net.cpp:124] Setting up res3a_branch2a_T
I0918 10:56:19.011281 29801 net.cpp:131] Top shape: 256 128 28 28 (25690112)
I0918 10:56:19.011283 29801 net.cpp:139] Memory required for data: 10311369728
I0918 10:56:19.011288 29801 layer_factory.hpp:77] Creating layer bn3a_branch2a
I0918 10:56:19.011296 29801 net.cpp:86] Creating Layer bn3a_branch2a
I0918 10:56:19.011298 29801 net.cpp:408] bn3a_branch2a <- res3a_branch2a_T
I0918 10:56:19.011302 29801 net.cpp:369] bn3a_branch2a -> res3a_branch2a_T (in-place)
I0918 10:56:19.011481 29801 net.cpp:124] Setting up bn3a_branch2a
I0918 10:56:19.011488 29801 net.cpp:131] Top shape: 256 128 28 28 (25690112)
I0918 10:56:19.011490 29801 net.cpp:139] Memory required for data: 10414130176
I0918 10:56:19.011509 29801 layer_factory.hpp:77] Creating layer scale3a_branch2a
I0918 10:56:19.011514 29801 net.cpp:86] Creating Layer scale3a_branch2a
I0918 10:56:19.011518 29801 net.cpp:408] scale3a_branch2a <- res3a_branch2a_T
I0918 10:56:19.011520 29801 net.cpp:369] scale3a_branch2a -> res3a_branch2a_T (in-place)
I0918 10:56:19.011541 29801 layer_factory.hpp:77] Creating layer scale3a_branch2a
I0918 10:56:19.011632 29801 net.cpp:124] Setting up scale3a_branch2a
I0918 10:56:19.011641 29801 net.cpp:131] Top shape: 256 128 28 28 (25690112)
I0918 10:56:19.011644 29801 net.cpp:139] Memory required for data: 10516890624
I0918 10:56:19.011648 29801 layer_factory.hpp:77] Creating layer res3a_branch2a_relu
I0918 10:56:19.011664 29801 net.cpp:86] Creating Layer res3a_branch2a_relu
I0918 10:56:19.011667 29801 net.cpp:408] res3a_branch2a_relu <- res3a_branch2a_T
I0918 10:56:19.011703 29801 net.cpp:369] res3a_branch2a_relu -> res3a_branch2a_T (in-place)
I0918 10:56:19.012027 29801 net.cpp:124] Setting up res3a_branch2a_relu
I0918 10:56:19.012033 29801 net.cpp:131] Top shape: 256 128 28 28 (25690112)
I0918 10:56:19.012050 29801 net.cpp:139] Memory required for data: 10619651072
I0918 10:56:19.012053 29801 layer_factory.hpp:77] Creating layer res3a_branch2b_S
I0918 10:56:19.012059 29801 net.cpp:86] Creating Layer res3a_branch2b_S
I0918 10:56:19.012063 29801 net.cpp:408] res3a_branch2b_S <- res3a_branch2a_T
I0918 10:56:19.012079 29801 net.cpp:382] res3a_branch2b_S -> res3a_branch2b_S
I0918 10:56:19.013376 29801 net.cpp:124] Setting up res3a_branch2b_S
I0918 10:56:19.013399 29801 net.cpp:131] Top shape: 256 48 28 28 (9633792)
I0918 10:56:19.013402 29801 net.cpp:139] Memory required for data: 10658186240
I0918 10:56:19.013406 29801 layer_factory.hpp:77] Creating layer res3a_branch2b_core
I0918 10:56:19.013413 29801 net.cpp:86] Creating Layer res3a_branch2b_core
I0918 10:56:19.013417 29801 net.cpp:408] res3a_branch2b_core <- res3a_branch2b_S
I0918 10:56:19.013420 29801 net.cpp:382] res3a_branch2b_core -> res3a_branch2b_core
I0918 10:56:19.014802 29801 net.cpp:124] Setting up res3a_branch2b_core
I0918 10:56:19.014827 29801 net.cpp:131] Top shape: 256 39 28 28 (7827456)
I0918 10:56:19.014829 29801 net.cpp:139] Memory required for data: 10689496064
I0918 10:56:19.014833 29801 layer_factory.hpp:77] Creating layer res3a_branch2b_T
I0918 10:56:19.014839 29801 net.cpp:86] Creating Layer res3a_branch2b_T
I0918 10:56:19.014842 29801 net.cpp:408] res3a_branch2b_T <- res3a_branch2b_core
I0918 10:56:19.014847 29801 net.cpp:382] res3a_branch2b_T -> res3a_branch2b_T
I0918 10:56:19.016952 29801 net.cpp:124] Setting up res3a_branch2b_T
I0918 10:56:19.016978 29801 net.cpp:131] Top shape: 256 128 28 28 (25690112)
I0918 10:56:19.016980 29801 net.cpp:139] Memory required for data: 10792256512
I0918 10:56:19.016985 29801 layer_factory.hpp:77] Creating layer bn3a_branch2b
I0918 10:56:19.016990 29801 net.cpp:86] Creating Layer bn3a_branch2b
I0918 10:56:19.016994 29801 net.cpp:408] bn3a_branch2b <- res3a_branch2b_T
I0918 10:56:19.016999 29801 net.cpp:369] bn3a_branch2b -> res3a_branch2b_T (in-place)
I0918 10:56:19.017148 29801 net.cpp:124] Setting up bn3a_branch2b
I0918 10:56:19.017155 29801 net.cpp:131] Top shape: 256 128 28 28 (25690112)
I0918 10:56:19.017171 29801 net.cpp:139] Memory required for data: 10895016960
I0918 10:56:19.017176 29801 layer_factory.hpp:77] Creating layer scale3a_branch2b
I0918 10:56:19.017180 29801 net.cpp:86] Creating Layer scale3a_branch2b
I0918 10:56:19.017184 29801 net.cpp:408] scale3a_branch2b <- res3a_branch2b_T
I0918 10:56:19.017187 29801 net.cpp:369] scale3a_branch2b -> res3a_branch2b_T (in-place)
I0918 10:56:19.017207 29801 layer_factory.hpp:77] Creating layer scale3a_branch2b
I0918 10:56:19.017290 29801 net.cpp:124] Setting up scale3a_branch2b
I0918 10:56:19.017298 29801 net.cpp:131] Top shape: 256 128 28 28 (25690112)
I0918 10:56:19.017302 29801 net.cpp:139] Memory required for data: 10997777408
I0918 10:56:19.017308 29801 layer_factory.hpp:77] Creating layer res3a
I0918 10:56:19.017326 29801 net.cpp:86] Creating Layer res3a
I0918 10:56:19.017330 29801 net.cpp:408] res3a <- res3a_branch1
I0918 10:56:19.017349 29801 net.cpp:408] res3a <- res3a_branch2b_T
I0918 10:56:19.017352 29801 net.cpp:382] res3a -> res3a
I0918 10:56:19.017374 29801 net.cpp:124] Setting up res3a
I0918 10:56:19.017380 29801 net.cpp:131] Top shape: 256 128 28 28 (25690112)
I0918 10:56:19.017382 29801 net.cpp:139] Memory required for data: 11100537856
I0918 10:56:19.017385 29801 layer_factory.hpp:77] Creating layer res3a_relu
I0918 10:56:19.017390 29801 net.cpp:86] Creating Layer res3a_relu
I0918 10:56:19.017395 29801 net.cpp:408] res3a_relu <- res3a
I0918 10:56:19.017400 29801 net.cpp:369] res3a_relu -> res3a (in-place)
I0918 10:56:19.017752 29801 net.cpp:124] Setting up res3a_relu
I0918 10:56:19.017760 29801 net.cpp:131] Top shape: 256 128 28 28 (25690112)
I0918 10:56:19.017763 29801 net.cpp:139] Memory required for data: 11203298304
I0918 10:56:19.017765 29801 layer_factory.hpp:77] Creating layer res3a_res3a_relu_0_split
I0918 10:56:19.017771 29801 net.cpp:86] Creating Layer res3a_res3a_relu_0_split
I0918 10:56:19.017773 29801 net.cpp:408] res3a_res3a_relu_0_split <- res3a
I0918 10:56:19.017777 29801 net.cpp:382] res3a_res3a_relu_0_split -> res3a_res3a_relu_0_split_0
I0918 10:56:19.017782 29801 net.cpp:382] res3a_res3a_relu_0_split -> res3a_res3a_relu_0_split_1
I0918 10:56:19.017808 29801 net.cpp:124] Setting up res3a_res3a_relu_0_split
I0918 10:56:19.017824 29801 net.cpp:131] Top shape: 256 128 28 28 (25690112)
I0918 10:56:19.017829 29801 net.cpp:131] Top shape: 256 128 28 28 (25690112)
I0918 10:56:19.017832 29801 net.cpp:139] Memory required for data: 11408819200
I0918 10:56:19.017837 29801 layer_factory.hpp:77] Creating layer res3b_branch2a_S
I0918 10:56:19.017844 29801 net.cpp:86] Creating Layer res3b_branch2a_S
I0918 10:56:19.017849 29801 net.cpp:408] res3b_branch2a_S <- res3a_res3a_relu_0_split_0
I0918 10:56:19.017856 29801 net.cpp:382] res3b_branch2a_S -> res3b_branch2a_S
I0918 10:56:19.019229 29801 net.cpp:124] Setting up res3b_branch2a_S
I0918 10:56:19.019238 29801 net.cpp:131] Top shape: 256 40 28 28 (8028160)
I0918 10:56:19.019241 29801 net.cpp:139] Memory required for data: 11440931840
I0918 10:56:19.019245 29801 layer_factory.hpp:77] Creating layer res3b_branch2a_core
I0918 10:56:19.019253 29801 net.cpp:86] Creating Layer res3b_branch2a_core
I0918 10:56:19.019255 29801 net.cpp:408] res3b_branch2a_core <- res3b_branch2a_S
I0918 10:56:19.019260 29801 net.cpp:382] res3b_branch2a_core -> res3b_branch2a_core
I0918 10:56:19.020588 29801 net.cpp:124] Setting up res3b_branch2a_core
I0918 10:56:19.020612 29801 net.cpp:131] Top shape: 256 32 28 28 (6422528)
I0918 10:56:19.020614 29801 net.cpp:139] Memory required for data: 11466621952
I0918 10:56:19.020618 29801 layer_factory.hpp:77] Creating layer res3b_branch2a_T
I0918 10:56:19.020625 29801 net.cpp:86] Creating Layer res3b_branch2a_T
I0918 10:56:19.020628 29801 net.cpp:408] res3b_branch2a_T <- res3b_branch2a_core
I0918 10:56:19.020632 29801 net.cpp:382] res3b_branch2a_T -> res3b_branch2a_T
I0918 10:56:19.022823 29801 net.cpp:124] Setting up res3b_branch2a_T
I0918 10:56:19.022850 29801 net.cpp:131] Top shape: 256 128 28 28 (25690112)
I0918 10:56:19.022852 29801 net.cpp:139] Memory required for data: 11569382400
I0918 10:56:19.022857 29801 layer_factory.hpp:77] Creating layer bn3b_branch2a
I0918 10:56:19.022862 29801 net.cpp:86] Creating Layer bn3b_branch2a
I0918 10:56:19.022866 29801 net.cpp:408] bn3b_branch2a <- res3b_branch2a_T
I0918 10:56:19.022871 29801 net.cpp:369] bn3b_branch2a -> res3b_branch2a_T (in-place)
I0918 10:56:19.023020 29801 net.cpp:124] Setting up bn3b_branch2a
I0918 10:56:19.023027 29801 net.cpp:131] Top shape: 256 128 28 28 (25690112)
I0918 10:56:19.023043 29801 net.cpp:139] Memory required for data: 11672142848
I0918 10:56:19.023048 29801 layer_factory.hpp:77] Creating layer scale3b_branch2a
I0918 10:56:19.023054 29801 net.cpp:86] Creating Layer scale3b_branch2a
I0918 10:56:19.023057 29801 net.cpp:408] scale3b_branch2a <- res3b_branch2a_T
I0918 10:56:19.023061 29801 net.cpp:369] scale3b_branch2a -> res3b_branch2a_T (in-place)
I0918 10:56:19.023082 29801 layer_factory.hpp:77] Creating layer scale3b_branch2a
I0918 10:56:19.023169 29801 net.cpp:124] Setting up scale3b_branch2a
I0918 10:56:19.023178 29801 net.cpp:131] Top shape: 256 128 28 28 (25690112)
I0918 10:56:19.023182 29801 net.cpp:139] Memory required for data: 11774903296
I0918 10:56:19.023187 29801 layer_factory.hpp:77] Creating layer res3b_branch2a_relu
I0918 10:56:19.023192 29801 net.cpp:86] Creating Layer res3b_branch2a_relu
I0918 10:56:19.023195 29801 net.cpp:408] res3b_branch2a_relu <- res3b_branch2a_T
I0918 10:56:19.023198 29801 net.cpp:369] res3b_branch2a_relu -> res3b_branch2a_T (in-place)
I0918 10:56:19.023550 29801 net.cpp:124] Setting up res3b_branch2a_relu
I0918 10:56:19.023558 29801 net.cpp:131] Top shape: 256 128 28 28 (25690112)
I0918 10:56:19.023576 29801 net.cpp:139] Memory required for data: 11877663744
I0918 10:56:19.023578 29801 layer_factory.hpp:77] Creating layer res3b_branch2b_S
I0918 10:56:19.023584 29801 net.cpp:86] Creating Layer res3b_branch2b_S
I0918 10:56:19.023587 29801 net.cpp:408] res3b_branch2b_S <- res3b_branch2a_T
I0918 10:56:19.023591 29801 net.cpp:382] res3b_branch2b_S -> res3b_branch2b_S
I0918 10:56:19.024868 29801 net.cpp:124] Setting up res3b_branch2b_S
I0918 10:56:19.024891 29801 net.cpp:131] Top shape: 256 28 28 28 (5619712)
I0918 10:56:19.024909 29801 net.cpp:139] Memory required for data: 11900142592
I0918 10:56:19.024914 29801 layer_factory.hpp:77] Creating layer res3b_branch2b_core
I0918 10:56:19.024920 29801 net.cpp:86] Creating Layer res3b_branch2b_core
I0918 10:56:19.024924 29801 net.cpp:408] res3b_branch2b_core <- res3b_branch2b_S
I0918 10:56:19.024930 29801 net.cpp:382] res3b_branch2b_core -> res3b_branch2b_core
I0918 10:56:19.026243 29801 net.cpp:124] Setting up res3b_branch2b_core
I0918 10:56:19.026252 29801 net.cpp:131] Top shape: 256 34 28 28 (6823936)
I0918 10:56:19.026255 29801 net.cpp:139] Memory required for data: 11927438336
I0918 10:56:19.026259 29801 layer_factory.hpp:77] Creating layer res3b_branch2b_T
I0918 10:56:19.026266 29801 net.cpp:86] Creating Layer res3b_branch2b_T
I0918 10:56:19.026269 29801 net.cpp:408] res3b_branch2b_T <- res3b_branch2b_core
I0918 10:56:19.026274 29801 net.cpp:382] res3b_branch2b_T -> res3b_branch2b_T
I0918 10:56:19.028482 29801 net.cpp:124] Setting up res3b_branch2b_T
I0918 10:56:19.028494 29801 net.cpp:131] Top shape: 256 128 28 28 (25690112)
I0918 10:56:19.028497 29801 net.cpp:139] Memory required for data: 12030198784
I0918 10:56:19.028502 29801 layer_factory.hpp:77] Creating layer bn3b_branch2b
I0918 10:56:19.028517 29801 net.cpp:86] Creating Layer bn3b_branch2b
I0918 10:56:19.028520 29801 net.cpp:408] bn3b_branch2b <- res3b_branch2b_T
I0918 10:56:19.028525 29801 net.cpp:369] bn3b_branch2b -> res3b_branch2b_T (in-place)
I0918 10:56:19.028668 29801 net.cpp:124] Setting up bn3b_branch2b
I0918 10:56:19.028676 29801 net.cpp:131] Top shape: 256 128 28 28 (25690112)
I0918 10:56:19.028678 29801 net.cpp:139] Memory required for data: 12132959232
I0918 10:56:19.028683 29801 layer_factory.hpp:77] Creating layer scale3b_branch2b
I0918 10:56:19.028687 29801 net.cpp:86] Creating Layer scale3b_branch2b
I0918 10:56:19.028690 29801 net.cpp:408] scale3b_branch2b <- res3b_branch2b_T
I0918 10:56:19.028694 29801 net.cpp:369] scale3b_branch2b -> res3b_branch2b_T (in-place)
I0918 10:56:19.028717 29801 layer_factory.hpp:77] Creating layer scale3b_branch2b
I0918 10:56:19.028798 29801 net.cpp:124] Setting up scale3b_branch2b
I0918 10:56:19.028805 29801 net.cpp:131] Top shape: 256 128 28 28 (25690112)
I0918 10:56:19.028808 29801 net.cpp:139] Memory required for data: 12235719680
I0918 10:56:19.028813 29801 layer_factory.hpp:77] Creating layer res3b
I0918 10:56:19.028821 29801 net.cpp:86] Creating Layer res3b
I0918 10:56:19.028826 29801 net.cpp:408] res3b <- res3a_res3a_relu_0_split_1
I0918 10:56:19.028831 29801 net.cpp:408] res3b <- res3b_branch2b_T
I0918 10:56:19.028836 29801 net.cpp:382] res3b -> res3b
I0918 10:56:19.028856 29801 net.cpp:124] Setting up res3b
I0918 10:56:19.028861 29801 net.cpp:131] Top shape: 256 128 28 28 (25690112)
I0918 10:56:19.028864 29801 net.cpp:139] Memory required for data: 12338480128
I0918 10:56:19.028867 29801 layer_factory.hpp:77] Creating layer res3b_relu
I0918 10:56:19.028872 29801 net.cpp:86] Creating Layer res3b_relu
I0918 10:56:19.028873 29801 net.cpp:408] res3b_relu <- res3b
I0918 10:56:19.028877 29801 net.cpp:369] res3b_relu -> res3b (in-place)
I0918 10:56:19.029306 29801 net.cpp:124] Setting up res3b_relu
I0918 10:56:19.029315 29801 net.cpp:131] Top shape: 256 128 28 28 (25690112)
I0918 10:56:19.029319 29801 net.cpp:139] Memory required for data: 12441240576
I0918 10:56:19.029321 29801 layer_factory.hpp:77] Creating layer res3b_res3b_relu_0_split
I0918 10:56:19.029326 29801 net.cpp:86] Creating Layer res3b_res3b_relu_0_split
I0918 10:56:19.029330 29801 net.cpp:408] res3b_res3b_relu_0_split <- res3b
I0918 10:56:19.029333 29801 net.cpp:382] res3b_res3b_relu_0_split -> res3b_res3b_relu_0_split_0
I0918 10:56:19.029337 29801 net.cpp:382] res3b_res3b_relu_0_split -> res3b_res3b_relu_0_split_1
I0918 10:56:19.029364 29801 net.cpp:124] Setting up res3b_res3b_relu_0_split
I0918 10:56:19.029368 29801 net.cpp:131] Top shape: 256 128 28 28 (25690112)
I0918 10:56:19.029371 29801 net.cpp:131] Top shape: 256 128 28 28 (25690112)
I0918 10:56:19.029374 29801 net.cpp:139] Memory required for data: 12646761472
I0918 10:56:19.029392 29801 layer_factory.hpp:77] Creating layer res4a_branch1
I0918 10:56:19.029402 29801 net.cpp:86] Creating Layer res4a_branch1
I0918 10:56:19.029407 29801 net.cpp:408] res4a_branch1 <- res3b_res3b_relu_0_split_0
I0918 10:56:19.029412 29801 net.cpp:382] res4a_branch1 -> res4a_branch1
I0918 10:56:19.030845 29801 net.cpp:124] Setting up res4a_branch1
I0918 10:56:19.030855 29801 net.cpp:131] Top shape: 256 256 14 14 (12845056)
I0918 10:56:19.030858 29801 net.cpp:139] Memory required for data: 12698141696
I0918 10:56:19.030863 29801 layer_factory.hpp:77] Creating layer bn4a_branch1
I0918 10:56:19.030867 29801 net.cpp:86] Creating Layer bn4a_branch1
I0918 10:56:19.030870 29801 net.cpp:408] bn4a_branch1 <- res4a_branch1
I0918 10:56:19.030874 29801 net.cpp:369] bn4a_branch1 -> res4a_branch1 (in-place)
I0918 10:56:19.031013 29801 net.cpp:124] Setting up bn4a_branch1
I0918 10:56:19.031020 29801 net.cpp:131] Top shape: 256 256 14 14 (12845056)
I0918 10:56:19.031023 29801 net.cpp:139] Memory required for data: 12749521920
I0918 10:56:19.031028 29801 layer_factory.hpp:77] Creating layer scale4a_branch1
I0918 10:56:19.031033 29801 net.cpp:86] Creating Layer scale4a_branch1
I0918 10:56:19.031035 29801 net.cpp:408] scale4a_branch1 <- res4a_branch1
I0918 10:56:19.031038 29801 net.cpp:369] scale4a_branch1 -> res4a_branch1 (in-place)
I0918 10:56:19.031057 29801 layer_factory.hpp:77] Creating layer scale4a_branch1
I0918 10:56:19.031141 29801 net.cpp:124] Setting up scale4a_branch1
I0918 10:56:19.031147 29801 net.cpp:131] Top shape: 256 256 14 14 (12845056)
I0918 10:56:19.031149 29801 net.cpp:139] Memory required for data: 12800902144
I0918 10:56:19.031153 29801 layer_factory.hpp:77] Creating layer res4a_branch2a_S
I0918 10:56:19.031159 29801 net.cpp:86] Creating Layer res4a_branch2a_S
I0918 10:56:19.031162 29801 net.cpp:408] res4a_branch2a_S <- res3b_res3b_relu_0_split_1
I0918 10:56:19.031167 29801 net.cpp:382] res4a_branch2a_S -> res4a_branch2a_S
I0918 10:56:19.032431 29801 net.cpp:124] Setting up res4a_branch2a_S
I0918 10:56:19.032441 29801 net.cpp:131] Top shape: 256 50 28 28 (10035200)
I0918 10:56:19.032444 29801 net.cpp:139] Memory required for data: 12841042944
I0918 10:56:19.032449 29801 layer_factory.hpp:77] Creating layer res4a_branch2a_core
I0918 10:56:19.032455 29801 net.cpp:86] Creating Layer res4a_branch2a_core
I0918 10:56:19.032459 29801 net.cpp:408] res4a_branch2a_core <- res4a_branch2a_S
I0918 10:56:19.032465 29801 net.cpp:382] res4a_branch2a_core -> res4a_branch2a_core
I0918 10:56:19.034674 29801 net.cpp:124] Setting up res4a_branch2a_core
I0918 10:56:19.034687 29801 net.cpp:131] Top shape: 256 67 14 14 (3361792)
I0918 10:56:19.034689 29801 net.cpp:139] Memory required for data: 12854490112
I0918 10:56:19.034693 29801 layer_factory.hpp:77] Creating layer res4a_branch2a_T
I0918 10:56:19.034701 29801 net.cpp:86] Creating Layer res4a_branch2a_T
I0918 10:56:19.034704 29801 net.cpp:408] res4a_branch2a_T <- res4a_branch2a_core
I0918 10:56:19.034708 29801 net.cpp:382] res4a_branch2a_T -> res4a_branch2a_T
I0918 10:56:19.035965 29801 net.cpp:124] Setting up res4a_branch2a_T
I0918 10:56:19.035975 29801 net.cpp:131] Top shape: 256 256 14 14 (12845056)
I0918 10:56:19.035979 29801 net.cpp:139] Memory required for data: 12905870336
I0918 10:56:19.035982 29801 layer_factory.hpp:77] Creating layer bn4a_branch2a
I0918 10:56:19.035989 29801 net.cpp:86] Creating Layer bn4a_branch2a
I0918 10:56:19.035991 29801 net.cpp:408] bn4a_branch2a <- res4a_branch2a_T
I0918 10:56:19.035995 29801 net.cpp:369] bn4a_branch2a -> res4a_branch2a_T (in-place)
I0918 10:56:19.036132 29801 net.cpp:124] Setting up bn4a_branch2a
I0918 10:56:19.036139 29801 net.cpp:131] Top shape: 256 256 14 14 (12845056)
I0918 10:56:19.036141 29801 net.cpp:139] Memory required for data: 12957250560
I0918 10:56:19.036146 29801 layer_factory.hpp:77] Creating layer scale4a_branch2a
I0918 10:56:19.036150 29801 net.cpp:86] Creating Layer scale4a_branch2a
I0918 10:56:19.036154 29801 net.cpp:408] scale4a_branch2a <- res4a_branch2a_T
I0918 10:56:19.036159 29801 net.cpp:369] scale4a_branch2a -> res4a_branch2a_T (in-place)
I0918 10:56:19.036191 29801 layer_factory.hpp:77] Creating layer scale4a_branch2a
I0918 10:56:19.036278 29801 net.cpp:124] Setting up scale4a_branch2a
I0918 10:56:19.036288 29801 net.cpp:131] Top shape: 256 256 14 14 (12845056)
I0918 10:56:19.036291 29801 net.cpp:139] Memory required for data: 13008630784
I0918 10:56:19.036298 29801 layer_factory.hpp:77] Creating layer res4a_branch2a_relu
I0918 10:56:19.036303 29801 net.cpp:86] Creating Layer res4a_branch2a_relu
I0918 10:56:19.036307 29801 net.cpp:408] res4a_branch2a_relu <- res4a_branch2a_T
I0918 10:56:19.036310 29801 net.cpp:369] res4a_branch2a_relu -> res4a_branch2a_T (in-place)
I0918 10:56:19.036720 29801 net.cpp:124] Setting up res4a_branch2a_relu
I0918 10:56:19.036729 29801 net.cpp:131] Top shape: 256 256 14 14 (12845056)
I0918 10:56:19.036732 29801 net.cpp:139] Memory required for data: 13060011008
I0918 10:56:19.036734 29801 layer_factory.hpp:77] Creating layer res4a_branch2b_S
I0918 10:56:19.036741 29801 net.cpp:86] Creating Layer res4a_branch2b_S
I0918 10:56:19.036744 29801 net.cpp:408] res4a_branch2b_S <- res4a_branch2a_T
I0918 10:56:19.036748 29801 net.cpp:382] res4a_branch2b_S -> res4a_branch2b_S
I0918 10:56:19.038003 29801 net.cpp:124] Setting up res4a_branch2b_S
I0918 10:56:19.038013 29801 net.cpp:131] Top shape: 256 69 14 14 (3462144)
I0918 10:56:19.038017 29801 net.cpp:139] Memory required for data: 13073859584
I0918 10:56:19.038020 29801 layer_factory.hpp:77] Creating layer res4a_branch2b_core
I0918 10:56:19.038027 29801 net.cpp:86] Creating Layer res4a_branch2b_core
I0918 10:56:19.038029 29801 net.cpp:408] res4a_branch2b_core <- res4a_branch2b_S
I0918 10:56:19.038033 29801 net.cpp:382] res4a_branch2b_core -> res4a_branch2b_core
I0918 10:56:19.040820 29801 net.cpp:124] Setting up res4a_branch2b_core
I0918 10:56:19.040838 29801 net.cpp:131] Top shape: 256 60 14 14 (3010560)
I0918 10:56:19.040840 29801 net.cpp:139] Memory required for data: 13085901824
I0918 10:56:19.040845 29801 layer_factory.hpp:77] Creating layer res4a_branch2b_T
I0918 10:56:19.040853 29801 net.cpp:86] Creating Layer res4a_branch2b_T
I0918 10:56:19.040858 29801 net.cpp:408] res4a_branch2b_T <- res4a_branch2b_core
I0918 10:56:19.040861 29801 net.cpp:382] res4a_branch2b_T -> res4a_branch2b_T
I0918 10:56:19.042124 29801 net.cpp:124] Setting up res4a_branch2b_T
I0918 10:56:19.042135 29801 net.cpp:131] Top shape: 256 256 14 14 (12845056)
I0918 10:56:19.042137 29801 net.cpp:139] Memory required for data: 13137282048
I0918 10:56:19.042155 29801 layer_factory.hpp:77] Creating layer bn4a_branch2b
I0918 10:56:19.042161 29801 net.cpp:86] Creating Layer bn4a_branch2b
I0918 10:56:19.042165 29801 net.cpp:408] bn4a_branch2b <- res4a_branch2b_T
I0918 10:56:19.042168 29801 net.cpp:369] bn4a_branch2b -> res4a_branch2b_T (in-place)
I0918 10:56:19.042318 29801 net.cpp:124] Setting up bn4a_branch2b
I0918 10:56:19.042326 29801 net.cpp:131] Top shape: 256 256 14 14 (12845056)
I0918 10:56:19.042328 29801 net.cpp:139] Memory required for data: 13188662272
I0918 10:56:19.042333 29801 layer_factory.hpp:77] Creating layer scale4a_branch2b
I0918 10:56:19.042337 29801 net.cpp:86] Creating Layer scale4a_branch2b
I0918 10:56:19.042340 29801 net.cpp:408] scale4a_branch2b <- res4a_branch2b_T
I0918 10:56:19.042345 29801 net.cpp:369] scale4a_branch2b -> res4a_branch2b_T (in-place)
I0918 10:56:19.042366 29801 layer_factory.hpp:77] Creating layer scale4a_branch2b
I0918 10:56:19.042449 29801 net.cpp:124] Setting up scale4a_branch2b
I0918 10:56:19.042456 29801 net.cpp:131] Top shape: 256 256 14 14 (12845056)
I0918 10:56:19.042459 29801 net.cpp:139] Memory required for data: 13240042496
I0918 10:56:19.042462 29801 layer_factory.hpp:77] Creating layer res4a
I0918 10:56:19.042469 29801 net.cpp:86] Creating Layer res4a
I0918 10:56:19.042472 29801 net.cpp:408] res4a <- res4a_branch1
I0918 10:56:19.042475 29801 net.cpp:408] res4a <- res4a_branch2b_T
I0918 10:56:19.042479 29801 net.cpp:382] res4a -> res4a
I0918 10:56:19.042492 29801 net.cpp:124] Setting up res4a
I0918 10:56:19.042510 29801 net.cpp:131] Top shape: 256 256 14 14 (12845056)
I0918 10:56:19.042512 29801 net.cpp:139] Memory required for data: 13291422720
I0918 10:56:19.042515 29801 layer_factory.hpp:77] Creating layer res4a_relu
I0918 10:56:19.042520 29801 net.cpp:86] Creating Layer res4a_relu
I0918 10:56:19.042523 29801 net.cpp:408] res4a_relu <- res4a
I0918 10:56:19.042528 29801 net.cpp:369] res4a_relu -> res4a (in-place)
I0918 10:56:19.042945 29801 net.cpp:124] Setting up res4a_relu
I0918 10:56:19.042954 29801 net.cpp:131] Top shape: 256 256 14 14 (12845056)
I0918 10:56:19.042958 29801 net.cpp:139] Memory required for data: 13342802944
I0918 10:56:19.042959 29801 layer_factory.hpp:77] Creating layer res4a_res4a_relu_0_split
I0918 10:56:19.042965 29801 net.cpp:86] Creating Layer res4a_res4a_relu_0_split
I0918 10:56:19.042968 29801 net.cpp:408] res4a_res4a_relu_0_split <- res4a
I0918 10:56:19.042971 29801 net.cpp:382] res4a_res4a_relu_0_split -> res4a_res4a_relu_0_split_0
I0918 10:56:19.042976 29801 net.cpp:382] res4a_res4a_relu_0_split -> res4a_res4a_relu_0_split_1
I0918 10:56:19.043002 29801 net.cpp:124] Setting up res4a_res4a_relu_0_split
I0918 10:56:19.043007 29801 net.cpp:131] Top shape: 256 256 14 14 (12845056)
I0918 10:56:19.043010 29801 net.cpp:131] Top shape: 256 256 14 14 (12845056)
I0918 10:56:19.043012 29801 net.cpp:139] Memory required for data: 13445563392
I0918 10:56:19.043015 29801 layer_factory.hpp:77] Creating layer res4b_branch2a_S
I0918 10:56:19.043020 29801 net.cpp:86] Creating Layer res4b_branch2a_S
I0918 10:56:19.043025 29801 net.cpp:408] res4b_branch2a_S <- res4a_res4a_relu_0_split_0
I0918 10:56:19.043030 29801 net.cpp:382] res4b_branch2a_S -> res4b_branch2a_S
I0918 10:56:19.044402 29801 net.cpp:124] Setting up res4b_branch2a_S
I0918 10:56:19.044412 29801 net.cpp:131] Top shape: 256 64 14 14 (3211264)
I0918 10:56:19.044415 29801 net.cpp:139] Memory required for data: 13458408448
I0918 10:56:19.044420 29801 layer_factory.hpp:77] Creating layer res4b_branch2a_core
I0918 10:56:19.044427 29801 net.cpp:86] Creating Layer res4b_branch2a_core
I0918 10:56:19.044430 29801 net.cpp:408] res4b_branch2a_core <- res4b_branch2a_S
I0918 10:56:19.044435 29801 net.cpp:382] res4b_branch2a_core -> res4b_branch2a_core
I0918 10:56:19.046720 29801 net.cpp:124] Setting up res4b_branch2a_core
I0918 10:56:19.046746 29801 net.cpp:131] Top shape: 256 51 14 14 (2558976)
I0918 10:56:19.046749 29801 net.cpp:139] Memory required for data: 13468644352
I0918 10:56:19.046754 29801 layer_factory.hpp:77] Creating layer res4b_branch2a_T
I0918 10:56:19.046761 29801 net.cpp:86] Creating Layer res4b_branch2a_T
I0918 10:56:19.046764 29801 net.cpp:408] res4b_branch2a_T <- res4b_branch2a_core
I0918 10:56:19.046770 29801 net.cpp:382] res4b_branch2a_T -> res4b_branch2a_T
I0918 10:56:19.048035 29801 net.cpp:124] Setting up res4b_branch2a_T
I0918 10:56:19.048058 29801 net.cpp:131] Top shape: 256 256 14 14 (12845056)
I0918 10:56:19.048061 29801 net.cpp:139] Memory required for data: 13520024576
I0918 10:56:19.048065 29801 layer_factory.hpp:77] Creating layer bn4b_branch2a
I0918 10:56:19.048070 29801 net.cpp:86] Creating Layer bn4b_branch2a
I0918 10:56:19.048074 29801 net.cpp:408] bn4b_branch2a <- res4b_branch2a_T
I0918 10:56:19.048079 29801 net.cpp:369] bn4b_branch2a -> res4b_branch2a_T (in-place)
I0918 10:56:19.048224 29801 net.cpp:124] Setting up bn4b_branch2a
I0918 10:56:19.048230 29801 net.cpp:131] Top shape: 256 256 14 14 (12845056)
I0918 10:56:19.048247 29801 net.cpp:139] Memory required for data: 13571404800
I0918 10:56:19.048254 29801 layer_factory.hpp:77] Creating layer scale4b_branch2a
I0918 10:56:19.048259 29801 net.cpp:86] Creating Layer scale4b_branch2a
I0918 10:56:19.048260 29801 net.cpp:408] scale4b_branch2a <- res4b_branch2a_T
I0918 10:56:19.048264 29801 net.cpp:369] scale4b_branch2a -> res4b_branch2a_T (in-place)
I0918 10:56:19.048285 29801 layer_factory.hpp:77] Creating layer scale4b_branch2a
I0918 10:56:19.048372 29801 net.cpp:124] Setting up scale4b_branch2a
I0918 10:56:19.048380 29801 net.cpp:131] Top shape: 256 256 14 14 (12845056)
I0918 10:56:19.048424 29801 net.cpp:139] Memory required for data: 13622785024
I0918 10:56:19.048429 29801 layer_factory.hpp:77] Creating layer res4b_branch2a_relu
I0918 10:56:19.048432 29801 net.cpp:86] Creating Layer res4b_branch2a_relu
I0918 10:56:19.048435 29801 net.cpp:408] res4b_branch2a_relu <- res4b_branch2a_T
I0918 10:56:19.048439 29801 net.cpp:369] res4b_branch2a_relu -> res4b_branch2a_T (in-place)
I0918 10:56:19.048885 29801 net.cpp:124] Setting up res4b_branch2a_relu
I0918 10:56:19.048893 29801 net.cpp:131] Top shape: 256 256 14 14 (12845056)
I0918 10:56:19.048910 29801 net.cpp:139] Memory required for data: 13674165248
I0918 10:56:19.048913 29801 layer_factory.hpp:77] Creating layer res4b_branch2b_S
I0918 10:56:19.048919 29801 net.cpp:86] Creating Layer res4b_branch2b_S
I0918 10:56:19.048923 29801 net.cpp:408] res4b_branch2b_S <- res4b_branch2a_T
I0918 10:56:19.048928 29801 net.cpp:382] res4b_branch2b_S -> res4b_branch2b_S
I0918 10:56:19.050302 29801 net.cpp:124] Setting up res4b_branch2b_S
I0918 10:56:19.050312 29801 net.cpp:131] Top shape: 256 47 14 14 (2358272)
I0918 10:56:19.050328 29801 net.cpp:139] Memory required for data: 13683598336
I0918 10:56:19.050333 29801 layer_factory.hpp:77] Creating layer res4b_branch2b_core
I0918 10:56:19.050339 29801 net.cpp:86] Creating Layer res4b_branch2b_core
I0918 10:56:19.050343 29801 net.cpp:408] res4b_branch2b_core <- res4b_branch2b_S
I0918 10:56:19.050346 29801 net.cpp:382] res4b_branch2b_core -> res4b_branch2b_core
I0918 10:56:19.052624 29801 net.cpp:124] Setting up res4b_branch2b_core
I0918 10:56:19.052650 29801 net.cpp:131] Top shape: 256 64 14 14 (3211264)
I0918 10:56:19.052654 29801 net.cpp:139] Memory required for data: 13696443392
I0918 10:56:19.052657 29801 layer_factory.hpp:77] Creating layer res4b_branch2b_T
I0918 10:56:19.052665 29801 net.cpp:86] Creating Layer res4b_branch2b_T
I0918 10:56:19.052670 29801 net.cpp:408] res4b_branch2b_T <- res4b_branch2b_core
I0918 10:56:19.052673 29801 net.cpp:382] res4b_branch2b_T -> res4b_branch2b_T
I0918 10:56:19.053900 29801 net.cpp:124] Setting up res4b_branch2b_T
I0918 10:56:19.053910 29801 net.cpp:131] Top shape: 256 256 14 14 (12845056)
I0918 10:56:19.053912 29801 net.cpp:139] Memory required for data: 13747823616
I0918 10:56:19.053916 29801 layer_factory.hpp:77] Creating layer bn4b_branch2b
I0918 10:56:19.053923 29801 net.cpp:86] Creating Layer bn4b_branch2b
I0918 10:56:19.053926 29801 net.cpp:408] bn4b_branch2b <- res4b_branch2b_T
I0918 10:56:19.053930 29801 net.cpp:369] bn4b_branch2b -> res4b_branch2b_T (in-place)
I0918 10:56:19.054064 29801 net.cpp:124] Setting up bn4b_branch2b
I0918 10:56:19.054072 29801 net.cpp:131] Top shape: 256 256 14 14 (12845056)
I0918 10:56:19.054075 29801 net.cpp:139] Memory required for data: 13799203840
I0918 10:56:19.054080 29801 layer_factory.hpp:77] Creating layer scale4b_branch2b
I0918 10:56:19.054085 29801 net.cpp:86] Creating Layer scale4b_branch2b
I0918 10:56:19.054087 29801 net.cpp:408] scale4b_branch2b <- res4b_branch2b_T
I0918 10:56:19.054091 29801 net.cpp:369] scale4b_branch2b -> res4b_branch2b_T (in-place)
I0918 10:56:19.054112 29801 layer_factory.hpp:77] Creating layer scale4b_branch2b
I0918 10:56:19.054200 29801 net.cpp:124] Setting up scale4b_branch2b
I0918 10:56:19.054206 29801 net.cpp:131] Top shape: 256 256 14 14 (12845056)
I0918 10:56:19.054209 29801 net.cpp:139] Memory required for data: 13850584064
I0918 10:56:19.054214 29801 layer_factory.hpp:77] Creating layer res4b
I0918 10:56:19.054219 29801 net.cpp:86] Creating Layer res4b
I0918 10:56:19.054222 29801 net.cpp:408] res4b <- res4a_res4a_relu_0_split_1
I0918 10:56:19.054225 29801 net.cpp:408] res4b <- res4b_branch2b_T
I0918 10:56:19.054229 29801 net.cpp:382] res4b -> res4b
I0918 10:56:19.054239 29801 net.cpp:124] Setting up res4b
I0918 10:56:19.054244 29801 net.cpp:131] Top shape: 256 256 14 14 (12845056)
I0918 10:56:19.054246 29801 net.cpp:139] Memory required for data: 13901964288
I0918 10:56:19.054250 29801 layer_factory.hpp:77] Creating layer res4b_relu
I0918 10:56:19.054257 29801 net.cpp:86] Creating Layer res4b_relu
I0918 10:56:19.054277 29801 net.cpp:408] res4b_relu <- res4b
I0918 10:56:19.054283 29801 net.cpp:369] res4b_relu -> res4b (in-place)
I0918 10:56:19.054715 29801 net.cpp:124] Setting up res4b_relu
I0918 10:56:19.054723 29801 net.cpp:131] Top shape: 256 256 14 14 (12845056)
I0918 10:56:19.054726 29801 net.cpp:139] Memory required for data: 13953344512
I0918 10:56:19.054729 29801 layer_factory.hpp:77] Creating layer res4b_res4b_relu_0_split
I0918 10:56:19.054733 29801 net.cpp:86] Creating Layer res4b_res4b_relu_0_split
I0918 10:56:19.054736 29801 net.cpp:408] res4b_res4b_relu_0_split <- res4b
I0918 10:56:19.054741 29801 net.cpp:382] res4b_res4b_relu_0_split -> res4b_res4b_relu_0_split_0
I0918 10:56:19.054746 29801 net.cpp:382] res4b_res4b_relu_0_split -> res4b_res4b_relu_0_split_1
I0918 10:56:19.054771 29801 net.cpp:124] Setting up res4b_res4b_relu_0_split
I0918 10:56:19.054776 29801 net.cpp:131] Top shape: 256 256 14 14 (12845056)
I0918 10:56:19.054780 29801 net.cpp:131] Top shape: 256 256 14 14 (12845056)
I0918 10:56:19.054782 29801 net.cpp:139] Memory required for data: 14056104960
I0918 10:56:19.054785 29801 layer_factory.hpp:77] Creating layer res5a_branch1
I0918 10:56:19.054791 29801 net.cpp:86] Creating Layer res5a_branch1
I0918 10:56:19.054796 29801 net.cpp:408] res5a_branch1 <- res4b_res4b_relu_0_split_0
I0918 10:56:19.054802 29801 net.cpp:382] res5a_branch1 -> res5a_branch1
I0918 10:56:19.057006 29801 net.cpp:124] Setting up res5a_branch1
I0918 10:56:19.057018 29801 net.cpp:131] Top shape: 256 512 7 7 (6422528)
I0918 10:56:19.057020 29801 net.cpp:139] Memory required for data: 14081795072
I0918 10:56:19.057024 29801 layer_factory.hpp:77] Creating layer bn5a_branch1
I0918 10:56:19.057031 29801 net.cpp:86] Creating Layer bn5a_branch1
I0918 10:56:19.057034 29801 net.cpp:408] bn5a_branch1 <- res5a_branch1
I0918 10:56:19.057037 29801 net.cpp:369] bn5a_branch1 -> res5a_branch1 (in-place)
I0918 10:56:19.057176 29801 net.cpp:124] Setting up bn5a_branch1
I0918 10:56:19.057183 29801 net.cpp:131] Top shape: 256 512 7 7 (6422528)
I0918 10:56:19.057185 29801 net.cpp:139] Memory required for data: 14107485184
I0918 10:56:19.057190 29801 layer_factory.hpp:77] Creating layer scale5a_branch1
I0918 10:56:19.057195 29801 net.cpp:86] Creating Layer scale5a_branch1
I0918 10:56:19.057198 29801 net.cpp:408] scale5a_branch1 <- res5a_branch1
I0918 10:56:19.057201 29801 net.cpp:369] scale5a_branch1 -> res5a_branch1 (in-place)
I0918 10:56:19.057221 29801 layer_factory.hpp:77] Creating layer scale5a_branch1
I0918 10:56:19.057307 29801 net.cpp:124] Setting up scale5a_branch1
I0918 10:56:19.057313 29801 net.cpp:131] Top shape: 256 512 7 7 (6422528)
I0918 10:56:19.057315 29801 net.cpp:139] Memory required for data: 14133175296
I0918 10:56:19.057319 29801 layer_factory.hpp:77] Creating layer res5a_branch2a_S
I0918 10:56:19.057325 29801 net.cpp:86] Creating Layer res5a_branch2a_S
I0918 10:56:19.057328 29801 net.cpp:408] res5a_branch2a_S <- res4b_res4b_relu_0_split_1
I0918 10:56:19.057332 29801 net.cpp:382] res5a_branch2a_S -> res5a_branch2a_S
I0918 10:56:19.059679 29801 net.cpp:124] Setting up res5a_branch2a_S
I0918 10:56:19.059693 29801 net.cpp:131] Top shape: 256 88 14 14 (4415488)
I0918 10:56:19.059697 29801 net.cpp:139] Memory required for data: 14150837248
I0918 10:56:19.059701 29801 layer_factory.hpp:77] Creating layer res5a_branch2a_core
I0918 10:56:19.059710 29801 net.cpp:86] Creating Layer res5a_branch2a_core
I0918 10:56:19.059712 29801 net.cpp:408] res5a_branch2a_core <- res5a_branch2a_S
I0918 10:56:19.059717 29801 net.cpp:382] res5a_branch2a_core -> res5a_branch2a_core
I0918 10:56:19.061134 29801 net.cpp:124] Setting up res5a_branch2a_core
I0918 10:56:19.061146 29801 net.cpp:131] Top shape: 256 141 7 7 (1768704)
I0918 10:56:19.061148 29801 net.cpp:139] Memory required for data: 14157912064
I0918 10:56:19.061152 29801 layer_factory.hpp:77] Creating layer res5a_branch2a_T
I0918 10:56:19.061159 29801 net.cpp:86] Creating Layer res5a_branch2a_T
I0918 10:56:19.061162 29801 net.cpp:408] res5a_branch2a_T <- res5a_branch2a_core
I0918 10:56:19.061180 29801 net.cpp:382] res5a_branch2a_T -> res5a_branch2a_T
I0918 10:56:19.062986 29801 net.cpp:124] Setting up res5a_branch2a_T
I0918 10:56:19.063000 29801 net.cpp:131] Top shape: 256 512 7 7 (6422528)
I0918 10:56:19.063004 29801 net.cpp:139] Memory required for data: 14183602176
I0918 10:56:19.063009 29801 layer_factory.hpp:77] Creating layer bn5a_branch2a
I0918 10:56:19.063015 29801 net.cpp:86] Creating Layer bn5a_branch2a
I0918 10:56:19.063019 29801 net.cpp:408] bn5a_branch2a <- res5a_branch2a_T
I0918 10:56:19.063022 29801 net.cpp:369] bn5a_branch2a -> res5a_branch2a_T (in-place)
I0918 10:56:19.063164 29801 net.cpp:124] Setting up bn5a_branch2a
I0918 10:56:19.063171 29801 net.cpp:131] Top shape: 256 512 7 7 (6422528)
I0918 10:56:19.063174 29801 net.cpp:139] Memory required for data: 14209292288
I0918 10:56:19.063179 29801 layer_factory.hpp:77] Creating layer scale5a_branch2a
I0918 10:56:19.063185 29801 net.cpp:86] Creating Layer scale5a_branch2a
I0918 10:56:19.063189 29801 net.cpp:408] scale5a_branch2a <- res5a_branch2a_T
I0918 10:56:19.063191 29801 net.cpp:369] scale5a_branch2a -> res5a_branch2a_T (in-place)
I0918 10:56:19.063212 29801 layer_factory.hpp:77] Creating layer scale5a_branch2a
…
I0918 11:18:35.800699 30258 layer_factory.hpp:77] Creating layer bn3a_branch2a
I0918 11:18:35.800704 30258 net.cpp:86] Creating Layer bn3a_branch2a
I0918 11:18:35.800707 30258 net.cpp:408] bn3a_branch2a <- res3a_branch2a_T
I0918 11:18:35.800711 30258 net.cpp:369] bn3a_branch2a -> res3a_branch2a_T (in-place)
I0918 11:18:35.800834 30258 net.cpp:124] Setting up bn3a_branch2a
I0918 11:18:35.800839 30258 net.cpp:131] Top shape: 16 128 28 28 (1605632)
I0918 11:18:35.800843 30258 net.cpp:139] Memory required for data: 650883328
I0918 11:18:35.800846 30258 layer_factory.hpp:77] Creating layer scale3a_branch2a
I0918 11:18:35.800851 30258 net.cpp:86] Creating Layer scale3a_branch2a
I0918 11:18:35.800854 30258 net.cpp:408] scale3a_branch2a <- res3a_branch2a_T
I0918 11:18:35.800858 30258 net.cpp:369] scale3a_branch2a -> res3a_branch2a_T (in-place)
I0918 11:18:35.800884 30258 layer_factory.hpp:77] Creating layer scale3a_branch2a
I0918 11:18:35.800953 30258 net.cpp:124] Setting up scale3a_branch2a
I0918 11:18:35.800958 30258 net.cpp:131] Top shape: 16 128 28 28 (1605632)
I0918 11:18:35.800961 30258 net.cpp:139] Memory required for data: 657305856
I0918 11:18:35.800964 30258 layer_factory.hpp:77] Creating layer res3a_branch2a_relu
I0918 11:18:35.800968 30258 net.cpp:86] Creating Layer res3a_branch2a_relu
I0918 11:18:35.800971 30258 net.cpp:408] res3a_branch2a_relu <- res3a_branch2a_T
I0918 11:18:35.800974 30258 net.cpp:369] res3a_branch2a_relu -> res3a_branch2a_T (in-place)
I0918 11:18:35.802328 30258 net.cpp:124] Setting up res3a_branch2a_relu
I0918 11:18:35.802340 30258 net.cpp:131] Top shape: 16 128 28 28 (1605632)
I0918 11:18:35.802342 30258 net.cpp:139] Memory required for data: 663728384
I0918 11:18:35.802345 30258 layer_factory.hpp:77] Creating layer res3a_branch2b_S
I0918 11:18:35.802351 30258 net.cpp:86] Creating Layer res3a_branch2b_S
I0918 11:18:35.802354 30258 net.cpp:408] res3a_branch2b_S <- res3a_branch2a_T
I0918 11:18:35.802361 30258 net.cpp:382] res3a_branch2b_S -> res3a_branch2b_S
I0918 11:18:35.803612 30258 net.cpp:124] Setting up res3a_branch2b_S
I0918 11:18:35.803622 30258 net.cpp:131] Top shape: 16 48 28 28 (602112)
I0918 11:18:35.803624 30258 net.cpp:139] Memory required for data: 666136832
I0918 11:18:35.803628 30258 layer_factory.hpp:77] Creating layer res3a_branch2b_core
I0918 11:18:35.803634 30258 net.cpp:86] Creating Layer res3a_branch2b_core
I0918 11:18:35.803638 30258 net.cpp:408] res3a_branch2b_core <- res3a_branch2b_S
I0918 11:18:35.803642 30258 net.cpp:382] res3a_branch2b_core -> res3a_branch2b_core
I0918 11:18:35.804980 30258 net.cpp:124] Setting up res3a_branch2b_core
I0918 11:18:35.804991 30258 net.cpp:131] Top shape: 16 39 28 28 (489216)
I0918 11:18:35.804993 30258 net.cpp:139] Memory required for data: 668093696
I0918 11:18:35.804997 30258 layer_factory.hpp:77] Creating layer res3a_branch2b_T
I0918 11:18:35.805003 30258 net.cpp:86] Creating Layer res3a_branch2b_T
I0918 11:18:35.805006 30258 net.cpp:408] res3a_branch2b_T <- res3a_branch2b_core
I0918 11:18:35.805011 30258 net.cpp:382] res3a_branch2b_T -> res3a_branch2b_T
I0918 11:18:35.806232 30258 net.cpp:124] Setting up res3a_branch2b_T
I0918 11:18:35.806242 30258 net.cpp:131] Top shape: 16 128 28 28 (1605632)
I0918 11:18:35.806244 30258 net.cpp:139] Memory required for data: 674516224
I0918 11:18:35.806248 30258 layer_factory.hpp:77] Creating layer bn3a_branch2b
I0918 11:18:35.806254 30258 net.cpp:86] Creating Layer bn3a_branch2b
I0918 11:18:35.806269 30258 net.cpp:408] bn3a_branch2b <- res3a_branch2b_T
I0918 11:18:35.806274 30258 net.cpp:369] bn3a_branch2b -> res3a_branch2b_T (in-place)
I0918 11:18:35.806396 30258 net.cpp:124] Setting up bn3a_branch2b
I0918 11:18:35.806401 30258 net.cpp:131] Top shape: 16 128 28 28 (1605632)
I0918 11:18:35.806403 30258 net.cpp:139] Memory required for data: 680938752
I0918 11:18:35.806408 30258 layer_factory.hpp:77] Creating layer scale3a_branch2b
I0918 11:18:35.806413 30258 net.cpp:86] Creating Layer scale3a_branch2b
I0918 11:18:35.806416 30258 net.cpp:408] scale3a_branch2b <- res3a_branch2b_T
I0918 11:18:35.806421 30258 net.cpp:369] scale3a_branch2b -> res3a_branch2b_T (in-place)
I0918 11:18:35.806447 30258 layer_factory.hpp:77] Creating layer scale3a_branch2b
I0918 11:18:35.806517 30258 net.cpp:124] Setting up scale3a_branch2b
I0918 11:18:35.806524 30258 net.cpp:131] Top shape: 16 128 28 28 (1605632)
I0918 11:18:35.806525 30258 net.cpp:139] Memory required for data: 687361280
I0918 11:18:35.806529 30258 layer_factory.hpp:77] Creating layer res3a
I0918 11:18:35.806533 30258 net.cpp:86] Creating Layer res3a
I0918 11:18:35.806535 30258 net.cpp:408] res3a <- res3a_branch1
I0918 11:18:35.806540 30258 net.cpp:408] res3a <- res3a_branch2b_T
I0918 11:18:35.806542 30258 net.cpp:382] res3a -> res3a
I0918 11:18:35.806558 30258 net.cpp:124] Setting up res3a
I0918 11:18:35.806565 30258 net.cpp:131] Top shape: 16 128 28 28 (1605632)
I0918 11:18:35.806569 30258 net.cpp:139] Memory required for data: 693783808
I0918 11:18:35.806572 30258 layer_factory.hpp:77] Creating layer res3a_relu
I0918 11:18:35.806579 30258 net.cpp:86] Creating Layer res3a_relu
I0918 11:18:35.806584 30258 net.cpp:408] res3a_relu <- res3a
I0918 11:18:35.806588 30258 net.cpp:369] res3a_relu -> res3a (in-place)
I0918 11:18:35.807968 30258 net.cpp:124] Setting up res3a_relu
I0918 11:18:35.807978 30258 net.cpp:131] Top shape: 16 128 28 28 (1605632)
I0918 11:18:35.807981 30258 net.cpp:139] Memory required for data: 700206336
I0918 11:18:35.807984 30258 layer_factory.hpp:77] Creating layer res3a_res3a_relu_0_split
I0918 11:18:35.807991 30258 net.cpp:86] Creating Layer res3a_res3a_relu_0_split
I0918 11:18:35.807993 30258 net.cpp:408] res3a_res3a_relu_0_split <- res3a
I0918 11:18:35.807997 30258 net.cpp:382] res3a_res3a_relu_0_split -> res3a_res3a_relu_0_split_0
I0918 11:18:35.808001 30258 net.cpp:382] res3a_res3a_relu_0_split -> res3a_res3a_relu_0_split_1
I0918 11:18:35.808034 30258 net.cpp:124] Setting up res3a_res3a_relu_0_split
I0918 11:18:35.808039 30258 net.cpp:131] Top shape: 16 128 28 28 (1605632)
I0918 11:18:35.808043 30258 net.cpp:131] Top shape: 16 128 28 28 (1605632)
I0918 11:18:35.808044 30258 net.cpp:139] Memory required for data: 713051392
I0918 11:18:35.808048 30258 layer_factory.hpp:77] Creating layer res3b_branch2a_S
I0918 11:18:35.808054 30258 net.cpp:86] Creating Layer res3b_branch2a_S
I0918 11:18:35.808058 30258 net.cpp:408] res3b_branch2a_S <- res3a_res3a_relu_0_split_0
I0918 11:18:35.808061 30258 net.cpp:382] res3b_branch2a_S -> res3b_branch2a_S
I0918 11:18:35.809269 30258 net.cpp:124] Setting up res3b_branch2a_S
I0918 11:18:35.809278 30258 net.cpp:131] Top shape: 16 40 28 28 (501760)
I0918 11:18:35.809294 30258 net.cpp:139] Memory required for data: 715058432
I0918 11:18:35.809299 30258 layer_factory.hpp:77] Creating layer res3b_branch2a_core
I0918 11:18:35.809307 30258 net.cpp:86] Creating Layer res3b_branch2a_core
I0918 11:18:35.809312 30258 net.cpp:408] res3b_branch2a_core <- res3b_branch2a_S
I0918 11:18:35.809317 30258 net.cpp:382] res3b_branch2a_core -> res3b_branch2a_core
I0918 11:18:35.810688 30258 net.cpp:124] Setting up res3b_branch2a_core
I0918 11:18:35.810711 30258 net.cpp:131] Top shape: 16 32 28 28 (401408)
I0918 11:18:35.810714 30258 net.cpp:139] Memory required for data: 716664064
I0918 11:18:35.810719 30258 layer_factory.hpp:77] Creating layer res3b_branch2a_T
I0918 11:18:35.810725 30258 net.cpp:86] Creating Layer res3b_branch2a_T
I0918 11:18:35.810729 30258 net.cpp:408] res3b_branch2a_T <- res3b_branch2a_core
I0918 11:18:35.810745 30258 net.cpp:382] res3b_branch2a_T -> res3b_branch2a_T
I0918 11:18:35.811957 30258 net.cpp:124] Setting up res3b_branch2a_T
I0918 11:18:35.811980 30258 net.cpp:131] Top shape: 16 128 28 28 (1605632)
I0918 11:18:35.811985 30258 net.cpp:139] Memory required for data: 723086592
I0918 11:18:35.811988 30258 layer_factory.hpp:77] Creating layer bn3b_branch2a
I0918 11:18:35.811992 30258 net.cpp:86] Creating Layer bn3b_branch2a
I0918 11:18:35.811995 30258 net.cpp:408] bn3b_branch2a <- res3b_branch2a_T
I0918 11:18:35.812001 30258 net.cpp:369] bn3b_branch2a -> res3b_branch2a_T (in-place)
I0918 11:18:35.812134 30258 net.cpp:124] Setting up bn3b_branch2a
I0918 11:18:35.812139 30258 net.cpp:131] Top shape: 16 128 28 28 (1605632)
I0918 11:18:35.812155 30258 net.cpp:139] Memory required for data: 729509120
I0918 11:18:35.812160 30258 layer_factory.hpp:77] Creating layer scale3b_branch2a
I0918 11:18:35.812165 30258 net.cpp:86] Creating Layer scale3b_branch2a
I0918 11:18:35.812168 30258 net.cpp:408] scale3b_branch2a <- res3b_branch2a_T
I0918 11:18:35.812171 30258 net.cpp:369] scale3b_branch2a -> res3b_branch2a_T (in-place)
I0918 11:18:35.812196 30258 layer_factory.hpp:77] Creating layer scale3b_branch2a
I0918 11:18:35.812263 30258 net.cpp:124] Setting up scale3b_branch2a
I0918 11:18:35.812268 30258 net.cpp:131] Top shape: 16 128 28 28 (1605632)
I0918 11:18:35.812269 30258 net.cpp:139] Memory required for data: 735931648
I0918 11:18:35.812273 30258 layer_factory.hpp:77] Creating layer res3b_branch2a_relu
I0918 11:18:35.812276 30258 net.cpp:86] Creating Layer res3b_branch2a_relu
I0918 11:18:35.812279 30258 net.cpp:408] res3b_branch2a_relu <- res3b_branch2a_T
I0918 11:18:35.812284 30258 net.cpp:369] res3b_branch2a_relu -> res3b_branch2a_T (in-place)
I0918 11:18:35.813638 30258 net.cpp:124] Setting up res3b_branch2a_relu
I0918 11:18:35.813663 30258 net.cpp:131] Top shape: 16 128 28 28 (1605632)
I0918 11:18:35.813665 30258 net.cpp:139] Memory required for data: 742354176
I0918 11:18:35.813668 30258 layer_factory.hpp:77] Creating layer res3b_branch2b_S
I0918 11:18:35.813674 30258 net.cpp:86] Creating Layer res3b_branch2b_S
I0918 11:18:35.813678 30258 net.cpp:408] res3b_branch2b_S <- res3b_branch2a_T
I0918 11:18:35.813683 30258 net.cpp:382] res3b_branch2b_S -> res3b_branch2b_S
I0918 11:18:35.814888 30258 net.cpp:124] Setting up res3b_branch2b_S
I0918 11:18:35.814896 30258 net.cpp:131] Top shape: 16 28 28 28 (351232)
I0918 11:18:35.814913 30258 net.cpp:139] Memory required for data: 743759104
I0918 11:18:35.814918 30258 layer_factory.hpp:77] Creating layer res3b_branch2b_core
I0918 11:18:35.814924 30258 net.cpp:86] Creating Layer res3b_branch2b_core
I0918 11:18:35.814927 30258 net.cpp:408] res3b_branch2b_core <- res3b_branch2b_S
I0918 11:18:35.814932 30258 net.cpp:382] res3b_branch2b_core -> res3b_branch2b_core
I0918 11:18:35.816258 30258 net.cpp:124] Setting up res3b_branch2b_core
I0918 11:18:35.816282 30258 net.cpp:131] Top shape: 16 34 28 28 (426496)
I0918 11:18:35.816285 30258 net.cpp:139] Memory required for data: 745465088
I0918 11:18:35.816289 30258 layer_factory.hpp:77] Creating layer res3b_branch2b_T
I0918 11:18:35.816304 30258 net.cpp:86] Creating Layer res3b_branch2b_T
I0918 11:18:35.816308 30258 net.cpp:408] res3b_branch2b_T <- res3b_branch2b_core
I0918 11:18:35.816313 30258 net.cpp:382] res3b_branch2b_T -> res3b_branch2b_T
I0918 11:18:35.817500 30258 net.cpp:124] Setting up res3b_branch2b_T
I0918 11:18:35.817523 30258 net.cpp:131] Top shape: 16 128 28 28 (1605632)
I0918 11:18:35.817526 30258 net.cpp:139] Memory required for data: 751887616
I0918 11:18:35.817530 30258 layer_factory.hpp:77] Creating layer bn3b_branch2b
I0918 11:18:35.817536 30258 net.cpp:86] Creating Layer bn3b_branch2b
I0918 11:18:35.817539 30258 net.cpp:408] bn3b_branch2b <- res3b_branch2b_T
I0918 11:18:35.817543 30258 net.cpp:369] bn3b_branch2b -> res3b_branch2b_T (in-place)
I0918 11:18:35.817661 30258 net.cpp:124] Setting up bn3b_branch2b
I0918 11:18:35.817665 30258 net.cpp:131] Top shape: 16 128 28 28 (1605632)
I0918 11:18:35.817668 30258 net.cpp:139] Memory required for data: 758310144
I0918 11:18:35.817709 30258 layer_factory.hpp:77] Creating layer scale3b_branch2b
I0918 11:18:35.817714 30258 net.cpp:86] Creating Layer scale3b_branch2b
I0918 11:18:35.817718 30258 net.cpp:408] scale3b_branch2b <- res3b_branch2b_T
I0918 11:18:35.817723 30258 net.cpp:369] scale3b_branch2b -> res3b_branch2b_T (in-place)
I0918 11:18:35.817746 30258 layer_factory.hpp:77] Creating layer scale3b_branch2b
I0918 11:18:35.817813 30258 net.cpp:124] Setting up scale3b_branch2b
I0918 11:18:35.817818 30258 net.cpp:131] Top shape: 16 128 28 28 (1605632)
I0918 11:18:35.817821 30258 net.cpp:139] Memory required for data: 764732672
I0918 11:18:35.817824 30258 layer_factory.hpp:77] Creating layer res3b
I0918 11:18:35.817829 30258 net.cpp:86] Creating Layer res3b
I0918 11:18:35.817832 30258 net.cpp:408] res3b <- res3a_res3a_relu_0_split_1
I0918 11:18:35.817836 30258 net.cpp:408] res3b <- res3b_branch2b_T
I0918 11:18:35.817838 30258 net.cpp:382] res3b -> res3b
I0918 11:18:35.817853 30258 net.cpp:124] Setting up res3b
I0918 11:18:35.817857 30258 net.cpp:131] Top shape: 16 128 28 28 (1605632)
I0918 11:18:35.817859 30258 net.cpp:139] Memory required for data: 771155200
I0918 11:18:35.817862 30258 layer_factory.hpp:77] Creating layer res3b_relu
I0918 11:18:35.817867 30258 net.cpp:86] Creating Layer res3b_relu
I0918 11:18:35.817870 30258 net.cpp:408] res3b_relu <- res3b
I0918 11:18:35.817874 30258 net.cpp:369] res3b_relu -> res3b (in-place)
I0918 11:18:35.819239 30258 net.cpp:124] Setting up res3b_relu
I0918 11:18:35.819263 30258 net.cpp:131] Top shape: 16 128 28 28 (1605632)
I0918 11:18:35.819267 30258 net.cpp:139] Memory required for data: 777577728
I0918 11:18:35.819269 30258 layer_factory.hpp:77] Creating layer res3b_res3b_relu_0_split
I0918 11:18:35.819275 30258 net.cpp:86] Creating Layer res3b_res3b_relu_0_split
I0918 11:18:35.819278 30258 net.cpp:408] res3b_res3b_relu_0_split <- res3b
I0918 11:18:35.819283 30258 net.cpp:382] res3b_res3b_relu_0_split -> res3b_res3b_relu_0_split_0
I0918 11:18:35.819288 30258 net.cpp:382] res3b_res3b_relu_0_split -> res3b_res3b_relu_0_split_1
I0918 11:18:35.819315 30258 net.cpp:124] Setting up res3b_res3b_relu_0_split
I0918 11:18:35.819320 30258 net.cpp:131] Top shape: 16 128 28 28 (1605632)
I0918 11:18:35.819324 30258 net.cpp:131] Top shape: 16 128 28 28 (1605632)
I0918 11:18:35.819326 30258 net.cpp:139] Memory required for data: 790422784
I0918 11:18:35.819329 30258 layer_factory.hpp:77] Creating layer res4a_branch1
I0918 11:18:35.819334 30258 net.cpp:86] Creating Layer res4a_branch1
I0918 11:18:35.819337 30258 net.cpp:408] res4a_branch1 <- res3b_res3b_relu_0_split_0
I0918 11:18:35.819342 30258 net.cpp:382] res4a_branch1 -> res4a_branch1
I0918 11:18:35.820714 30258 net.cpp:124] Setting up res4a_branch1
I0918 11:18:35.820737 30258 net.cpp:131] Top shape: 16 256 14 14 (802816)
I0918 11:18:35.820740 30258 net.cpp:139] Memory required for data: 793634048
I0918 11:18:35.820744 30258 layer_factory.hpp:77] Creating layer bn4a_branch1
I0918 11:18:35.820750 30258 net.cpp:86] Creating Layer bn4a_branch1
I0918 11:18:35.820753 30258 net.cpp:408] bn4a_branch1 <- res4a_branch1
I0918 11:18:35.820757 30258 net.cpp:369] bn4a_branch1 -> res4a_branch1 (in-place)
I0918 11:18:35.820894 30258 net.cpp:124] Setting up bn4a_branch1
I0918 11:18:35.820899 30258 net.cpp:131] Top shape: 16 256 14 14 (802816)
I0918 11:18:35.820916 30258 net.cpp:139] Memory required for data: 796845312
I0918 11:18:35.820920 30258 layer_factory.hpp:77] Creating layer scale4a_branch1
I0918 11:18:35.820924 30258 net.cpp:86] Creating Layer scale4a_branch1
I0918 11:18:35.820927 30258 net.cpp:408] scale4a_branch1 <- res4a_branch1
I0918 11:18:35.820930 30258 net.cpp:369] scale4a_branch1 -> res4a_branch1 (in-place)
I0918 11:18:35.820955 30258 layer_factory.hpp:77] Creating layer scale4a_branch1
I0918 11:18:35.821023 30258 net.cpp:124] Setting up scale4a_branch1
I0918 11:18:35.821028 30258 net.cpp:131] Top shape: 16 256 14 14 (802816)
I0918 11:18:35.821030 30258 net.cpp:139] Memory required for data: 800056576
I0918 11:18:35.821034 30258 layer_factory.hpp:77] Creating layer res4a_branch2a_S
I0918 11:18:35.821051 30258 net.cpp:86] Creating Layer res4a_branch2a_S
I0918 11:18:35.821054 30258 net.cpp:408] res4a_branch2a_S <- res3b_res3b_relu_0_split_1
I0918 11:18:35.821058 30258 net.cpp:382] res4a_branch2a_S -> res4a_branch2a_S
I0918 11:18:35.822463 30258 net.cpp:124] Setting up res4a_branch2a_S
I0918 11:18:35.822471 30258 net.cpp:131] Top shape: 16 50 28 28 (627200)
I0918 11:18:35.822475 30258 net.cpp:139] Memory required for data: 802565376
I0918 11:18:35.822479 30258 layer_factory.hpp:77] Creating layer res4a_branch2a_core
I0918 11:18:35.822486 30258 net.cpp:86] Creating Layer res4a_branch2a_core
I0918 11:18:35.822490 30258 net.cpp:408] res4a_branch2a_core <- res4a_branch2a_S
I0918 11:18:35.822495 30258 net.cpp:382] res4a_branch2a_core -> res4a_branch2a_core
I0918 11:18:35.823796 30258 net.cpp:124] Setting up res4a_branch2a_core
I0918 11:18:35.823806 30258 net.cpp:131] Top shape: 16 67 14 14 (210112)
I0918 11:18:35.823808 30258 net.cpp:139] Memory required for data: 803405824
I0918 11:18:35.823813 30258 layer_factory.hpp:77] Creating layer res4a_branch2a_T
I0918 11:18:35.823822 30258 net.cpp:86] Creating Layer res4a_branch2a_T
I0918 11:18:35.823827 30258 net.cpp:408] res4a_branch2a_T <- res4a_branch2a_core
I0918 11:18:35.823833 30258 net.cpp:382] res4a_branch2a_T -> res4a_branch2a_T
I0918 11:18:35.826236 30258 net.cpp:124] Setting up res4a_branch2a_T
I0918 11:18:35.826261 30258 net.cpp:131] Top shape: 16 256 14 14 (802816)
I0918 11:18:35.826263 30258 net.cpp:139] Memory required for data: 806617088
I0918 11:18:35.826268 30258 layer_factory.hpp:77] Creating layer bn4a_branch2a
I0918 11:18:35.826277 30258 net.cpp:86] Creating Layer bn4a_branch2a
I0918 11:18:35.826282 30258 net.cpp:408] bn4a_branch2a <- res4a_branch2a_T
I0918 11:18:35.826288 30258 net.cpp:369] bn4a_branch2a -> res4a_branch2a_T (in-place)
I0918 11:18:35.826428 30258 net.cpp:124] Setting up bn4a_branch2a
I0918 11:18:35.826434 30258 net.cpp:131] Top shape: 16 256 14 14 (802816)
I0918 11:18:35.826436 30258 net.cpp:139] Memory required for data: 809828352
I0918 11:18:35.826454 30258 layer_factory.hpp:77] Creating layer scale4a_branch2a
I0918 11:18:35.826462 30258 net.cpp:86] Creating Layer scale4a_branch2a
I0918 11:18:35.826464 30258 net.cpp:408] scale4a_branch2a <- res4a_branch2a_T
I0918 11:18:35.826469 30258 net.cpp:369] scale4a_branch2a -> res4a_branch2a_T (in-place)
I0918 11:18:35.826498 30258 layer_factory.hpp:77] Creating layer scale4a_branch2a
I0918 11:18:35.826571 30258 net.cpp:124] Setting up scale4a_branch2a
I0918 11:18:35.826576 30258 net.cpp:131] Top shape: 16 256 14 14 (802816)
I0918 11:18:35.826580 30258 net.cpp:139] Memory required for data: 813039616
I0918 11:18:35.826582 30258 layer_factory.hpp:77] Creating layer res4a_branch2a_relu
I0918 11:18:35.826586 30258 net.cpp:86] Creating Layer res4a_branch2a_relu
I0918 11:18:35.826589 30258 net.cpp:408] res4a_branch2a_relu <- res4a_branch2a_T
I0918 11:18:35.826592 30258 net.cpp:369] res4a_branch2a_relu -> res4a_branch2a_T (in-place)
I0918 11:18:35.826988 30258 net.cpp:124] Setting up res4a_branch2a_relu
I0918 11:18:35.826997 30258 net.cpp:131] Top shape: 16 256 14 14 (802816)
I0918 11:18:35.827013 30258 net.cpp:139] Memory required for data: 816250880
I0918 11:18:35.827015 30258 layer_factory.hpp:77] Creating layer res4a_branch2b_S
I0918 11:18:35.827023 30258 net.cpp:86] Creating Layer res4a_branch2b_S
I0918 11:18:35.827028 30258 net.cpp:408] res4a_branch2b_S <- res4a_branch2a_T
I0918 11:18:35.827033 30258 net.cpp:382] res4a_branch2b_S -> res4a_branch2b_S
I0918 11:18:35.828264 30258 net.cpp:124] Setting up res4a_branch2b_S
I0918 11:18:35.828274 30258 net.cpp:131] Top shape: 16 69 14 14 (216384)
I0918 11:18:35.828276 30258 net.cpp:139] Memory required for data: 817116416
I0918 11:18:35.828280 30258 layer_factory.hpp:77] Creating layer res4a_branch2b_core
I0918 11:18:35.828287 30258 net.cpp:86] Creating Layer res4a_branch2b_core
I0918 11:18:35.828290 30258 net.cpp:408] res4a_branch2b_core <- res4a_branch2b_S
I0918 11:18:35.828294 30258 net.cpp:382] res4a_branch2b_core -> res4a_branch2b_core
I0918 11:18:35.830099 30258 net.cpp:124] Setting up res4a_branch2b_core
I0918 11:18:35.830109 30258 net.cpp:131] Top shape: 16 60 14 14 (188160)
I0918 11:18:35.830112 30258 net.cpp:139] Memory required for data: 817869056
I0918 11:18:35.830116 30258 layer_factory.hpp:77] Creating layer res4a_branch2b_T
I0918 11:18:35.830123 30258 net.cpp:86] Creating Layer res4a_branch2b_T
I0918 11:18:35.830127 30258 net.cpp:408] res4a_branch2b_T <- res4a_branch2b_core
I0918 11:18:35.830130 30258 net.cpp:382] res4a_branch2b_T -> res4a_branch2b_T
I0918 11:18:35.832506 30258 net.cpp:124] Setting up res4a_branch2b_T
I0918 11:18:35.832520 30258 net.cpp:131] Top shape: 16 256 14 14 (802816)
I0918 11:18:35.832522 30258 net.cpp:139] Memory required for data: 821080320
I0918 11:18:35.832538 30258 layer_factory.hpp:77] Creating layer bn4a_branch2b
I0918 11:18:35.832545 30258 net.cpp:86] Creating Layer bn4a_branch2b
I0918 11:18:35.832548 30258 net.cpp:408] bn4a_branch2b <- res4a_branch2b_T
I0918 11:18:35.832553 30258 net.cpp:369] bn4a_branch2b -> res4a_branch2b_T (in-place)
I0918 11:18:35.832681 30258 net.cpp:124] Setting up bn4a_branch2b
I0918 11:18:35.832687 30258 net.cpp:131] Top shape: 16 256 14 14 (802816)
I0918 11:18:35.832690 30258 net.cpp:139] Memory required for data: 824291584
I0918 11:18:35.832695 30258 layer_factory.hpp:77] Creating layer scale4a_branch2b
I0918 11:18:35.832700 30258 net.cpp:86] Creating Layer scale4a_branch2b
I0918 11:18:35.832703 30258 net.cpp:408] scale4a_branch2b <- res4a_branch2b_T
I0918 11:18:35.832706 30258 net.cpp:369] scale4a_branch2b -> res4a_branch2b_T (in-place)
I0918 11:18:35.832739 30258 layer_factory.hpp:77] Creating layer scale4a_branch2b
I0918 11:18:35.832811 30258 net.cpp:124] Setting up scale4a_branch2b
I0918 11:18:35.832818 30258 net.cpp:131] Top shape: 16 256 14 14 (802816)
I0918 11:18:35.832819 30258 net.cpp:139] Memory required for data: 827502848
I0918 11:18:35.832823 30258 layer_factory.hpp:77] Creating layer res4a
I0918 11:18:35.832828 30258 net.cpp:86] Creating Layer res4a
I0918 11:18:35.832830 30258 net.cpp:408] res4a <- res4a_branch1
I0918 11:18:35.832834 30258 net.cpp:408] res4a <- res4a_branch2b_T
I0918 11:18:35.832837 30258 net.cpp:382] res4a -> res4a
I0918 11:18:35.832857 30258 net.cpp:124] Setting up res4a
I0918 11:18:35.832862 30258 net.cpp:131] Top shape: 16 256 14 14 (802816)
I0918 11:18:35.832864 30258 net.cpp:139] Memory required for data: 830714112
I0918 11:18:35.832866 30258 layer_factory.hpp:77] Creating layer res4a_relu
I0918 11:18:35.832871 30258 net.cpp:86] Creating Layer res4a_relu
I0918 11:18:35.832876 30258 net.cpp:408] res4a_relu <- res4a
I0918 11:18:35.832880 30258 net.cpp:369] res4a_relu -> res4a (in-place)
I0918 11:18:35.833278 30258 net.cpp:124] Setting up res4a_relu
I0918 11:18:35.833287 30258 net.cpp:131] Top shape: 16 256 14 14 (802816)
I0918 11:18:35.833289 30258 net.cpp:139] Memory required for data: 833925376
I0918 11:18:35.833292 30258 layer_factory.hpp:77] Creating layer res4a_res4a_relu_0_split
I0918 11:18:35.833297 30258 net.cpp:86] Creating Layer res4a_res4a_relu_0_split
I0918 11:18:35.833299 30258 net.cpp:408] res4a_res4a_relu_0_split <- res4a
I0918 11:18:35.833304 30258 net.cpp:382] res4a_res4a_relu_0_split -> res4a_res4a_relu_0_split_0
I0918 11:18:35.833308 30258 net.cpp:382] res4a_res4a_relu_0_split -> res4a_res4a_relu_0_split_1
I0918 11:18:35.833339 30258 net.cpp:124] Setting up res4a_res4a_relu_0_split
I0918 11:18:35.833344 30258 net.cpp:131] Top shape: 16 256 14 14 (802816)
I0918 11:18:35.833348 30258 net.cpp:131] Top shape: 16 256 14 14 (802816)
I0918 11:18:35.833349 30258 net.cpp:139] Memory required for data: 840347904
I0918 11:18:35.833353 30258 layer_factory.hpp:77] Creating layer res4b_branch2a_S
I0918 11:18:35.833359 30258 net.cpp:86] Creating Layer res4b_branch2a_S
I0918 11:18:35.833361 30258 net.cpp:408] res4b_branch2a_S <- res4a_res4a_relu_0_split_0
I0918 11:18:35.833364 30258 net.cpp:382] res4b_branch2a_S -> res4b_branch2a_S
I0918 11:18:35.834615 30258 net.cpp:124] Setting up res4b_branch2a_S
I0918 11:18:35.834635 30258 net.cpp:131] Top shape: 16 64 14 14 (200704)
I0918 11:18:35.834638 30258 net.cpp:139] Memory required for data: 841150720
I0918 11:18:35.834643 30258 layer_factory.hpp:77] Creating layer res4b_branch2a_core
I0918 11:18:35.834648 30258 net.cpp:86] Creating Layer res4b_branch2a_core
I0918 11:18:35.834650 30258 net.cpp:408] res4b_branch2a_core <- res4b_branch2a_S
I0918 11:18:35.834657 30258 net.cpp:382] res4b_branch2a_core -> res4b_branch2a_core
I0918 11:18:35.835928 30258 net.cpp:124] Setting up res4b_branch2a_core
I0918 11:18:35.835938 30258 net.cpp:131] Top shape: 16 51 14 14 (159936)
I0918 11:18:35.835940 30258 net.cpp:139] Memory required for data: 841790464
I0918 11:18:35.835944 30258 layer_factory.hpp:77] Creating layer res4b_branch2a_T
I0918 11:18:35.835952 30258 net.cpp:86] Creating Layer res4b_branch2a_T
I0918 11:18:35.835955 30258 net.cpp:408] res4b_branch2a_T <- res4b_branch2a_core
I0918 11:18:35.835960 30258 net.cpp:382] res4b_branch2a_T -> res4b_branch2a_T
I0918 11:18:35.838421 30258 net.cpp:124] Setting up res4b_branch2a_T
I0918 11:18:35.838433 30258 net.cpp:131] Top shape: 16 256 14 14 (802816)
I0918 11:18:35.838435 30258 net.cpp:139] Memory required for data: 845001728
I0918 11:18:35.838439 30258 layer_factory.hpp:77] Creating layer bn4b_branch2a
I0918 11:18:35.838449 30258 net.cpp:86] Creating Layer bn4b_branch2a
I0918 11:18:35.838451 30258 net.cpp:408] bn4b_branch2a <- res4b_branch2a_T
I0918 11:18:35.838455 30258 net.cpp:369] bn4b_branch2a -> res4b_branch2a_T (in-place)
I0918 11:18:35.838582 30258 net.cpp:124] Setting up bn4b_branch2a
I0918 11:18:35.838588 30258 net.cpp:131] Top shape: 16 256 14 14 (802816)
I0918 11:18:35.838590 30258 net.cpp:139] Memory required for data: 848212992
I0918 11:18:35.838594 30258 layer_factory.hpp:77] Creating layer scale4b_branch2a
I0918 11:18:35.838599 30258 net.cpp:86] Creating Layer scale4b_branch2a
I0918 11:18:35.838603 30258 net.cpp:408] scale4b_branch2a <- res4b_branch2a_T
I0918 11:18:35.838605 30258 net.cpp:369] scale4b_branch2a -> res4b_branch2a_T (in-place)
I0918 11:18:35.838632 30258 layer_factory.hpp:77] Creating layer scale4b_branch2a
I0918 11:18:35.838701 30258 net.cpp:124] Setting up scale4b_branch2a
I0918 11:18:35.838706 30258 net.cpp:131] Top shape: 16 256 14 14 (802816)
I0918 11:18:35.838707 30258 net.cpp:139] Memory required for data: 851424256
I0918 11:18:35.838711 30258 layer_factory.hpp:77] Creating layer res4b_branch2a_relu
I0918 11:18:35.838716 30258 net.cpp:86] Creating Layer res4b_branch2a_relu
I0918 11:18:35.838719 30258 net.cpp:408] res4b_branch2a_relu <- res4b_branch2a_T
I0918 11:18:35.838722 30258 net.cpp:369] res4b_branch2a_relu -> res4b_branch2a_T (in-place)
I0918 11:18:35.839119 30258 net.cpp:124] Setting up res4b_branch2a_relu
I0918 11:18:35.839128 30258 net.cpp:131] Top shape: 16 256 14 14 (802816)
I0918 11:18:35.839130 30258 net.cpp:139] Memory required for data: 854635520
I0918 11:18:35.839133 30258 layer_factory.hpp:77] Creating layer res4b_branch2b_S
I0918 11:18:35.839139 30258 net.cpp:86] Creating Layer res4b_branch2b_S
I0918 11:18:35.839143 30258 net.cpp:408] res4b_branch2b_S <- res4b_branch2a_T
I0918 11:18:35.839146 30258 net.cpp:382] res4b_branch2b_S -> res4b_branch2b_S
I0918 11:18:35.840389 30258 net.cpp:124] Setting up res4b_branch2b_S
I0918 11:18:35.840399 30258 net.cpp:131] Top shape: 16 47 14 14 (147392)
I0918 11:18:35.840400 30258 net.cpp:139] Memory required for data: 855225088
I0918 11:18:35.840404 30258 layer_factory.hpp:77] Creating layer res4b_branch2b_core
I0918 11:18:35.840410 30258 net.cpp:86] Creating Layer res4b_branch2b_core
I0918 11:18:35.840415 30258 net.cpp:408] res4b_branch2b_core <- res4b_branch2b_S
I0918 11:18:35.840418 30258 net.cpp:382] res4b_branch2b_core -> res4b_branch2b_core
I0918 11:18:35.842816 30258 net.cpp:124] Setting up res4b_branch2b_core
I0918 11:18:35.842829 30258 net.cpp:131] Top shape: 16 64 14 14 (200704)
I0918 11:18:35.842833 30258 net.cpp:139] Memory required for data: 856027904
I0918 11:18:35.842836 30258 layer_factory.hpp:77] Creating layer res4b_branch2b_T
I0918 11:18:35.842859 30258 net.cpp:86] Creating Layer res4b_branch2b_T
I0918 11:18:35.842862 30258 net.cpp:408] res4b_branch2b_T <- res4b_branch2b_core
I0918 11:18:35.842866 30258 net.cpp:382] res4b_branch2b_T -> res4b_branch2b_T
I0918 11:18:35.844112 30258 net.cpp:124] Setting up res4b_branch2b_T
I0918 11:18:35.844122 30258 net.cpp:131] Top shape: 16 256 14 14 (802816)
I0918 11:18:35.844125 30258 net.cpp:139] Memory required for data: 859239168
I0918 11:18:35.844130 30258 layer_factory.hpp:77] Creating layer bn4b_branch2b
I0918 11:18:35.844135 30258 net.cpp:86] Creating Layer bn4b_branch2b
I0918 11:18:35.844138 30258 net.cpp:408] bn4b_branch2b <- res4b_branch2b_T
I0918 11:18:35.844142 30258 net.cpp:369] bn4b_branch2b -> res4b_branch2b_T (in-place)
I0918 11:18:35.844257 30258 net.cpp:124] Setting up bn4b_branch2b
I0918 11:18:35.844262 30258 net.cpp:131] Top shape: 16 256 14 14 (802816)
I0918 11:18:35.844265 30258 net.cpp:139] Memory required for data: 862450432
I0918 11:18:35.844269 30258 layer_factory.hpp:77] Creating layer scale4b_branch2b
I0918 11:18:35.844274 30258 net.cpp:86] Creating Layer scale4b_branch2b
I0918 11:18:35.844276 30258 net.cpp:408] scale4b_branch2b <- res4b_branch2b_T
I0918 11:18:35.844281 30258 net.cpp:369] scale4b_branch2b -> res4b_branch2b_T (in-place)
I0918 11:18:35.844307 30258 layer_factory.hpp:77] Creating layer scale4b_branch2b
I0918 11:18:35.844374 30258 net.cpp:124] Setting up scale4b_branch2b
I0918 11:18:35.844379 30258 net.cpp:131] Top shape: 16 256 14 14 (802816)
I0918 11:18:35.844383 30258 net.cpp:139] Memory required for data: 865661696
I0918 11:18:35.844385 30258 layer_factory.hpp:77] Creating layer res4b
I0918 11:18:35.844390 30258 net.cpp:86] Creating Layer res4b
I0918 11:18:35.844394 30258 net.cpp:408] res4b <- res4a_res4a_relu_0_split_1
I0918 11:18:35.844398 30258 net.cpp:408] res4b <- res4b_branch2b_T
I0918 11:18:35.844400 30258 net.cpp:382] res4b -> res4b
I0918 11:18:35.844415 30258 net.cpp:124] Setting up res4b
I0918 11:18:35.844419 30258 net.cpp:131] Top shape: 16 256 14 14 (802816)
I0918 11:18:35.844421 30258 net.cpp:139] Memory required for data: 868872960
I0918 11:18:35.844424 30258 layer_factory.hpp:77] Creating layer res4b_relu
I0918 11:18:35.844427 30258 net.cpp:86] Creating Layer res4b_relu
I0918 11:18:35.844430 30258 net.cpp:408] res4b_relu <- res4b
I0918 11:18:35.844434 30258 net.cpp:369] res4b_relu -> res4b (in-place)
I0918 11:18:35.844832 30258 net.cpp:124] Setting up res4b_relu
I0918 11:18:35.844841 30258 net.cpp:131] Top shape: 16 256 14 14 (802816)
I0918 11:18:35.844842 30258 net.cpp:139] Memory required for data: 872084224
I0918 11:18:35.844846 30258 layer_factory.hpp:77] Creating layer res4b_res4b_relu_0_split
I0918 11:18:35.844851 30258 net.cpp:86] Creating Layer res4b_res4b_relu_0_split
I0918 11:18:35.844853 30258 net.cpp:408] res4b_res4b_relu_0_split <- res4b
I0918 11:18:35.844857 30258 net.cpp:382] res4b_res4b_relu_0_split -> res4b_res4b_relu_0_split_0
I0918 11:18:35.844871 30258 net.cpp:382] res4b_res4b_relu_0_split -> res4b_res4b_relu_0_split_1
I0918 11:18:35.844902 30258 net.cpp:124] Setting up res4b_res4b_relu_0_split
I0918 11:18:35.844907 30258 net.cpp:131] Top shape: 16 256 14 14 (802816)
I0918 11:18:35.844909 30258 net.cpp:131] Top shape: 16 256 14 14 (802816)
I0918 11:18:35.844911 30258 net.cpp:139] Memory required for data: 878506752
I0918 11:18:35.844914 30258 layer_factory.hpp:77] Creating layer res5a_branch1
I0918 11:18:35.844920 30258 net.cpp:86] Creating Layer res5a_branch1
I0918 11:18:35.844923 30258 net.cpp:408] res5a_branch1 <- res4b_res4b_relu_0_split_0
I0918 11:18:35.844926 30258 net.cpp:382] res5a_branch1 -> res5a_branch1
I0918 11:18:35.846966 30258 net.cpp:124] Setting up res5a_branch1
I0918 11:18:35.846976 30258 net.cpp:131] Top shape: 16 512 7 7 (401408)
I0918 11:18:35.846978 30258 net.cpp:139] Memory required for data: 880112384
I0918 11:18:35.846982 30258 layer_factory.hpp:77] Creating layer bn5a_branch1
I0918 11:18:35.846987 30258 net.cpp:86] Creating Layer bn5a_branch1
I0918 11:18:35.846990 30258 net.cpp:408] bn5a_branch1 <- res5a_branch1
I0918 11:18:35.847003 30258 net.cpp:369] bn5a_branch1 -> res5a_branch1 (in-place)
I0918 11:18:35.847131 30258 net.cpp:124] Setting up bn5a_branch1
I0918 11:18:35.847137 30258 net.cpp:131] Top shape: 16 512 7 7 (401408)
I0918 11:18:35.847141 30258 net.cpp:139] Memory required for data: 881718016
I0918 11:18:35.847144 30258 layer_factory.hpp:77] Creating layer scale5a_branch1
I0918 11:18:35.847149 30258 net.cpp:86] Creating Layer scale5a_branch1
I0918 11:18:35.847152 30258 net.cpp:408] scale5a_branch1 <- res5a_branch1
I0918 11:18:35.847156 30258 net.cpp:369] scale5a_branch1 -> res5a_branch1 (in-place)
I0918 11:18:35.847182 30258 layer_factory.hpp:77] Creating layer scale5a_branch1
I0918 11:18:35.847251 30258 net.cpp:124] Setting up scale5a_branch1
I0918 11:18:35.847257 30258 net.cpp:131] Top shape: 16 512 7 7 (401408)
I0918 11:18:35.847259 30258 net.cpp:139] Memory required for data: 883323648
I0918 11:18:35.847263 30258 layer_factory.hpp:77] Creating layer res5a_branch2a_S
I0918 11:18:35.847270 30258 net.cpp:86] Creating Layer res5a_branch2a_S
I0918 11:18:35.847271 30258 net.cpp:408] res5a_branch2a_S <- res4b_res4b_relu_0_split_1
I0918 11:18:35.847276 30258 net.cpp:382] res5a_branch2a_S -> res5a_branch2a_S
I0918 11:18:35.849803 30258 net.cpp:124] Setting up res5a_branch2a_S
I0918 11:18:35.849817 30258 net.cpp:131] Top shape: 16 88 14 14 (275968)
I0918 11:18:35.849819 30258 net.cpp:139] Memory required for data: 884427520
I0918 11:18:35.849826 30258 layer_factory.hpp:77] Creating layer res5a_branch2a_core
I0918 11:18:35.849838 30258 net.cpp:86] Creating Layer res5a_branch2a_core
I0918 11:18:35.849841 30258 net.cpp:408] res5a_branch2a_core <- res5a_branch2a_S
I0918 11:18:35.849849 30258 net.cpp:382] res5a_branch2a_core -> res5a_branch2a_core
I0918 11:18:35.851148 30258 net.cpp:124] Setting up res5a_branch2a_core
I0918 11:18:35.851157 30258 net.cpp:131] Top shape: 16 141 7 7 (110544)
I0918 11:18:35.851161 30258 net.cpp:139] Memory required for data: 884869696
I0918 11:18:35.851164 30258 layer_factory.hpp:77] Creating layer res5a_branch2a_T
I0918 11:18:35.851171 30258 net.cpp:86] Creating Layer res5a_branch2a_T
I0918 11:18:35.851173 30258 net.cpp:408] res5a_branch2a_T <- res5a_branch2a_core
I0918 11:18:35.851178 30258 net.cpp:382] res5a_branch2a_T -> res5a_branch2a_T
I0918 11:18:35.852443 30258 net.cpp:124] Setting up res5a_branch2a_T
I0918 11:18:35.852453 30258 net.cpp:131] Top shape: 16 512 7 7 (401408)
I0918 11:18:35.852457 30258 net.cpp:139] Memory required for data: 886475328
I0918 11:18:35.852460 30258 layer_factory.hpp:77] Creating layer bn5a_branch2a
I0918 11:18:35.852466 30258 net.cpp:86] Creating Layer bn5a_branch2a
I0918 11:18:35.852469 30258 net.cpp:408] bn5a_branch2a <- res5a_branch2a_T
I0918 11:18:35.852474 30258 net.cpp:369] bn5a_branch2a -> res5a_branch2a_T (in-place)
I0918 11:18:35.853050 30258 net.cpp:124] Setting up bn5a_branch2a
I0918 11:18:35.853060 30258 net.cpp:131] Top shape: 16 512 7 7 (401408)
I0918 11:18:35.853061 30258 net.cpp:139] Memory required for data: 888080960
I0918 11:18:35.853066 30258 layer_factory.hpp:77] Creating layer scale5a_branch2a
I0918 11:18:35.853073 30258 net.cpp:86] Creating Layer scale5a_branch2a
I0918 11:18:35.853076 30258 net.cpp:408] scale5a_branch2a <- res5a_branch2a_T
I0918 11:18:35.853080 30258 net.cpp:369] scale5a_branch2a -> res5a_branch2a_T (in-place)
I0918 11:18:35.853111 30258 layer_factory.hpp:77] Creating layer scale5a_branch2a
I0918 11:18:35.853180 30258 net.cpp:124] Setting up scale5a_branch2a
I0918 11:18:35.853188 30258 net.cpp:131] Top shape: 16 512 7 7 (401408)
I0918 11:18:35.853189 30258 net.cpp:139] Memory required for data: 889686592
I0918 11:18:35.853193 30258 layer_factory.hpp:77] Creating layer res5a_branch2a_relu
I0918 11:18:35.853197 30258 net.cpp:86] Creating Layer res5a_branch2a_relu
I0918 11:18:35.853199 30258 net.cpp:408] res5a_branch2a_relu <- res5a_branch2a_T
I0918 11:18:35.853204 30258 net.cpp:369] res5a_branch2a_relu -> res5a_branch2a_T (in-place)
I0918 11:18:35.853602 30258 net.cpp:124] Setting up res5a_branch2a_relu
I0918 11:18:35.853622 30258 net.cpp:131] Top shape: 16 512 7 7 (401408)
I0918 11:18:35.853626 30258 net.cpp:139] Memory required for data: 891292224
I0918 11:18:35.853628 30258 layer_factory.hpp:77] Creating layer res5a_branch2b_S
I0918 11:18:35.853634 30258 net.cpp:86] Creating Layer res5a_branch2b_S
I0918 11:18:35.853637 30258 net.cpp:408] res5a_branch2b_S <- res5a_branch2a_T
I0918 11:18:35.853641 30258 net.cpp:382] res5a_branch2b_S -> res5a_branch2b_S
I0918 11:18:35.856101 30258 net.cpp:124] Setting up res5a_branch2b_S
I0918 11:18:35.856114 30258 net.cpp:131] Top shape: 16 122 7 7 (95648)
I0918 11:18:35.856117 30258 net.cpp:139] Memory required for data: 891674816
I0918 11:18:35.856122 30258 layer_factory.hpp:77] Creating layer res5a_branch2b_core
I0918 11:18:35.856129 30258 net.cpp:86] Creating Layer res5a_branch2b_core
I0918 11:18:35.856132 30258 net.cpp:408] res5a_branch2b_core <- res5a_branch2b_S
I0918 11:18:35.856137 30258 net.cpp:382] res5a_branch2b_core -> res5a_branch2b_core
I0918 11:18:35.857501 30258 net.cpp:124] Setting up res5a_branch2b_core
I0918 11:18:35.857511 30258 net.cpp:131] Top shape: 16 94 7 7 (73696)
I0918 11:18:35.857513 30258 net.cpp:139] Memory required for data: 891969600
I0918 11:18:35.857517 30258 layer_factory.hpp:77] Creating layer res5a_branch2b_T
I0918 11:18:35.857523 30258 net.cpp:86] Creating Layer res5a_branch2b_T
I0918 11:18:35.857527 30258 net.cpp:408] res5a_branch2b_T <- res5a_branch2b_core
I0918 11:18:35.857530 30258 net.cpp:382] res5a_branch2b_T -> res5a_branch2b_T
I0918 11:18:35.858870 30258 net.cpp:124] Setting up res5a_branch2b_T
I0918 11:18:35.858880 30258 net.cpp:131] Top shape: 16 512 7 7 (401408)
I0918 11:18:35.858881 30258 net.cpp:139] Memory required for data: 893575232
I0918 11:18:35.858886 30258 layer_factory.hpp:77] Creating layer bn5a_branch2b
I0918 11:18:35.858891 30258 net.cpp:86] Creating Layer bn5a_branch2b
I0918 11:18:35.858896 30258 net.cpp:408] bn5a_branch2b <- res5a_branch2b_T
I0918 11:18:35.858898 30258 net.cpp:369] bn5a_branch2b -> res5a_branch2b_T (in-place)
I0918 11:18:35.859020 30258 net.cpp:124] Setting up bn5a_branch2b
I0918 11:18:35.859025 30258 net.cpp:131] Top shape: 16 512 7 7 (401408)
I0918 11:18:35.859028 30258 net.cpp:139] Memory required for data: 895180864
I0918 11:18:35.859032 30258 layer_factory.hpp:77] Creating layer scale5a_branch2b
I0918 11:18:35.859038 30258 net.cpp:86] Creating Layer scale5a_branch2b
I0918 11:18:35.859041 30258 net.cpp:408] scale5a_branch2b <- res5a_branch2b_T
I0918 11:18:35.859045 30258 net.cpp:369] scale5a_branch2b -> res5a_branch2b_T (in-place)
I0918 11:18:35.859072 30258 layer_factory.hpp:77] Creating layer scale5a_branch2b
I0918 11:18:35.859143 30258 net.cpp:124] Setting up scale5a_branch2b
I0918 11:18:35.859148 30258 net.cpp:131] Top shape: 16 512 7 7 (401408)
I0918 11:18:35.859151 30258 net.cpp:139] Memory required for data: 896786496
I0918 11:18:35.859154 30258 layer_factory.hpp:77] Creating layer res5a
I0918 11:18:35.859159 30258 net.cpp:86] Creating Layer res5a
I0918 11:18:35.859163 30258 net.cpp:408] res5a <- res5a_branch1
I0918 11:18:35.859166 30258 net.cpp:408] res5a <- res5a_branch2b_T
I0918 11:18:35.859169 30258 net.cpp:382] res5a -> res5a
I0918 11:18:35.859185 30258 net.cpp:124] Setting up res5a
I0918 11:18:35.859189 30258 net.cpp:131] Top shape: 16 512 7 7 (401408)
I0918 11:18:35.859194 30258 net.cpp:139] Memory required for data: 898392128
I0918 11:18:35.859195 30258 layer_factory.hpp:77] Creating layer res5a_relu
I0918 11:18:35.859200 30258 net.cpp:86] Creating Layer res5a_relu
I0918 11:18:35.859202 30258 net.cpp:408] res5a_relu <- res5a
I0918 11:18:35.859206 30258 net.cpp:369] res5a_relu -> res5a (in-place)
I0918 11:18:35.859509 30258 net.cpp:124] Setting up res5a_relu
I0918 11:18:35.859517 30258 net.cpp:131] Top shape: 16 512 7 7 (401408)
I0918 11:18:35.859519 30258 net.cpp:139] Memory required for data: 899997760
I0918 11:18:35.859522 30258 layer_factory.hpp:77] Creating layer res5a_res5a_relu_0_split
I0918 11:18:35.859526 30258 net.cpp:86] Creating Layer res5a_res5a_relu_0_split
I0918 11:18:35.859529 30258 net.cpp:408] res5a_res5a_relu_0_split <- res5a
I0918 11:18:35.859544 30258 net.cpp:382] res5a_res5a_relu_0_split -> res5a_res5a_relu_0_split_0
I0918 11:18:35.859549 30258 net.cpp:382] res5a_res5a_relu_0_split -> res5a_res5a_relu_0_split_1
I0918 11:18:35.859577 30258 net.cpp:124] Setting up res5a_res5a_relu_0_split
I0918 11:18:35.859582 30258 net.cpp:131] Top shape: 16 512 7 7 (401408)
I0918 11:18:35.859586 30258 net.cpp:131] Top shape: 16 512 7 7 (401408)
I0918 11:18:35.859587 30258 net.cpp:139] Memory required for data: 903209024
I0918 11:18:35.859589 30258 layer_factory.hpp:77] Creating layer res5b_branch2a_S
I0918 11:18:35.859596 30258 net.cpp:86] Creating Layer res5b_branch2a_S
I0918 11:18:35.859598 30258 net.cpp:408] res5b_branch2a_S <- res5a_res5a_relu_0_split_0
I0918 11:18:35.859601 30258 net.cpp:382] res5b_branch2a_S -> res5b_branch2a_S
I0918 11:18:35.862013 30258 net.cpp:124] Setting up res5b_branch2a_S
I0918 11:18:35.862025 30258 net.cpp:131] Top shape: 16 159 7 7 (124656)
I0918 11:18:35.862028 30258 net.cpp:139] Memory required for data: 903707648
I0918 11:18:35.862032 30258 layer_factory.hpp:77] Creating layer res5b_branch2a_core
I0918 11:18:35.862040 30258 net.cpp:86] Creating Layer res5b_branch2a_core
I0918 11:18:35.862044 30258 net.cpp:408] res5b_branch2a_core <- res5b_branch2a_S
I0918 11:18:35.862048 30258 net.cpp:382] res5b_branch2a_core -> res5b_branch2a_core
I0918 11:18:35.863922 30258 net.cpp:124] Setting up res5b_branch2a_core
I0918 11:18:35.863934 30258 net.cpp:131] Top shape: 16 157 7 7 (123088)
I0918 11:18:35.863935 30258 net.cpp:139] Memory required for data: 904200000
I0918 11:18:35.863940 30258 layer_factory.hpp:77] Creating layer res5b_branch2a_T
I0918 11:18:35.863948 30258 net.cpp:86] Creating Layer res5b_branch2a_T
I0918 11:18:35.863951 30258 net.cpp:408] res5b_branch2a_T <- res5b_branch2a_core
I0918 11:18:35.863955 30258 net.cpp:382] res5b_branch2a_T -> res5b_branch2a_T
I0918 11:18:35.865311 30258 net.cpp:124] Setting up res5b_branch2a_T
I0918 11:18:35.865320 30258 net.cpp:131] Top shape: 16 512 7 7 (401408)
I0918 11:18:35.865324 30258 net.cpp:139] Memory required for data: 905805632
I0918 11:18:35.865327 30258 layer_factory.hpp:77] Creating layer bn5b_branch2a
I0918 11:18:35.865334 30258 net.cpp:86] Creating Layer bn5b_branch2a
I0918 11:18:35.865336 30258 net.cpp:408] bn5b_branch2a <- res5b_branch2a_T
I0918 11:18:35.865340 30258 net.cpp:369] bn5b_branch2a -> res5b_branch2a_T (in-place)
I0918 11:18:35.865465 30258 net.cpp:124] Setting up bn5b_branch2a
I0918 11:18:35.865471 30258 net.cpp:131] Top shape: 16 512 7 7 (401408)
I0918 11:18:35.865473 30258 net.cpp:139] Memory required for data: 907411264
I0918 11:18:35.865478 30258 layer_factory.hpp:77] Creating layer scale5b_branch2a
I0918 11:18:35.865483 30258 net.cpp:86] Creating Layer scale5b_branch2a
I0918 11:18:35.865485 30258 net.cpp:408] scale5b_branch2a <- res5b_branch2a_T
I0918 11:18:35.865489 30258 net.cpp:369] scale5b_branch2a -> res5b_branch2a_T (in-place)
I0918 11:18:35.865517 30258 layer_factory.hpp:77] Creating layer scale5b_branch2a
I0918 11:18:35.865587 30258 net.cpp:124] Setting up scale5b_branch2a
I0918 11:18:35.865592 30258 net.cpp:131] Top shape: 16 512 7 7 (401408)
I0918 11:18:35.865594 30258 net.cpp:139] Memory required for data: 909016896
I0918 11:18:35.865598 30258 layer_factory.hpp:77] Creating layer res5b_branch2a_relu
I0918 11:18:35.865602 30258 net.cpp:86] Creating Layer res5b_branch2a_relu
I0918 11:18:35.865604 30258 net.cpp:408] res5b_branch2a_relu <- res5b_branch2a_T
I0918 11:18:35.865608 30258 net.cpp:369] res5b_branch2a_relu -> res5b_branch2a_T (in-place)
I0918 11:18:35.865907 30258 net.cpp:124] Setting up res5b_branch2a_relu
I0918 11:18:35.865914 30258 net.cpp:131] Top shape: 16 512 7 7 (401408)
I0918 11:18:35.865916 30258 net.cpp:139] Memory required for data: 910622528
I0918 11:18:35.865919 30258 layer_factory.hpp:77] Creating layer res5b_branch2b_S
I0918 11:18:35.865924 30258 net.cpp:86] Creating Layer res5b_branch2b_S
I0918 11:18:35.865927 30258 net.cpp:408] res5b_branch2b_S <- res5b_branch2a_T
I0918 11:18:35.865942 30258 net.cpp:382] res5b_branch2b_S -> res5b_branch2b_S
I0918 11:18:35.868427 30258 net.cpp:124] Setting up res5b_branch2b_S
I0918 11:18:35.868438 30258 net.cpp:131] Top shape: 16 247 7 7 (193648)
I0918 11:18:35.868441 30258 net.cpp:139] Memory required for data: 911397120
I0918 11:18:35.868446 30258 layer_factory.hpp:77] Creating layer res5b_branch2b_core
I0918 11:18:35.868453 30258 net.cpp:86] Creating Layer res5b_branch2b_core
I0918 11:18:35.868456 30258 net.cpp:408] res5b_branch2b_core <- res5b_branch2b_S
I0918 11:18:35.868460 30258 net.cpp:382] res5b_branch2b_core -> res5b_branch2b_core
I0918 11:18:35.870525 30258 net.cpp:124] Setting up res5b_branch2b_core
I0918 11:18:35.870537 30258 net.cpp:131] Top shape: 16 259 7 7 (203056)
I0918 11:18:35.870540 30258 net.cpp:139] Memory required for data: 912209344
I0918 11:18:35.870545 30258 layer_factory.hpp:77] Creating layer res5b_branch2b_T
I0918 11:18:35.870553 30258 net.cpp:86] Creating Layer res5b_branch2b_T
I0918 11:18:35.870555 30258 net.cpp:408] res5b_branch2b_T <- res5b_branch2b_core
I0918 11:18:35.870560 30258 net.cpp:382] res5b_branch2b_T -> res5b_branch2b_T
I0918 11:18:35.872050 30258 net.cpp:124] Setting up res5b_branch2b_T
I0918 11:18:35.872059 30258 net.cpp:131] Top shape: 16 512 7 7 (401408)
I0918 11:18:35.872062 30258 net.cpp:139] Memory required for data: 913814976
I0918 11:18:35.872066 30258 layer_factory.hpp:77] Creating layer bn5b_branch2b
I0918 11:18:35.872073 30258 net.cpp:86] Creating Layer bn5b_branch2b
I0918 11:18:35.872076 30258 net.cpp:408] bn5b_branch2b <- res5b_branch2b_T
I0918 11:18:35.872081 30258 net.cpp:369] bn5b_branch2b -> res5b_branch2b_T (in-place)
I0918 11:18:35.872207 30258 net.cpp:124] Setting up bn5b_branch2b
I0918 11:18:35.872212 30258 net.cpp:131] Top shape: 16 512 7 7 (401408)
I0918 11:18:35.872215 30258 net.cpp:139] Memory required for data: 915420608
I0918 11:18:35.872220 30258 layer_factory.hpp:77] Creating layer scale5b_branch2b
I0918 11:18:35.872241 30258 net.cpp:86] Creating Layer scale5b_branch2b
I0918 11:18:35.872243 30258 net.cpp:408] scale5b_branch2b <- res5b_branch2b_T
I0918 11:18:35.872246 30258 net.cpp:369] scale5b_branch2b -> res5b_branch2b_T (in-place)
I0918 11:18:35.872274 30258 layer_factory.hpp:77] Creating layer scale5b_branch2b
I0918 11:18:35.872344 30258 net.cpp:124] Setting up scale5b_branch2b
I0918 11:18:35.872349 30258 net.cpp:131] Top shape: 16 512 7 7 (401408)
I0918 11:18:35.872351 30258 net.cpp:139] Memory required for data: 917026240
I0918 11:18:35.872355 30258 layer_factory.hpp:77] Creating layer res5b
I0918 11:18:35.872359 30258 net.cpp:86] Creating Layer res5b
I0918 11:18:35.872362 30258 net.cpp:408] res5b <- res5a_res5a_relu_0_split_1
I0918 11:18:35.872365 30258 net.cpp:408] res5b <- res5b_branch2b_T
I0918 11:18:35.872370 30258 net.cpp:382] res5b -> res5b
I0918 11:18:35.872385 30258 net.cpp:124] Setting up res5b
I0918 11:18:35.872388 30258 net.cpp:131] Top shape: 16 512 7 7 (401408)
I0918 11:18:35.872390 30258 net.cpp:139] Memory required for data: 918631872
I0918 11:18:35.872393 30258 layer_factory.hpp:77] Creating layer res5b_relu
I0918 11:18:35.872396 30258 net.cpp:86] Creating Layer res5b_relu
I0918 11:18:35.872400 30258 net.cpp:408] res5b_relu <- res5b
I0918 11:18:35.872402 30258 net.cpp:369] res5b_relu -> res5b (in-place)
I0918 11:18:35.872706 30258 net.cpp:124] Setting up res5b_relu
I0918 11:18:35.872714 30258 net.cpp:131] Top shape: 16 512 7 7 (401408)
I0918 11:18:35.872716 30258 net.cpp:139] Memory required for data: 920237504
I0918 11:18:35.872718 30258 layer_factory.hpp:77] Creating layer pool5
I0918 11:18:35.872725 30258 net.cpp:86] Creating Layer pool5
I0918 11:18:35.872727 30258 net.cpp:408] pool5 <- res5b
I0918 11:18:35.872731 30258 net.cpp:382] pool5 -> pool5
I0918 11:18:35.873144 30258 net.cpp:124] Setting up pool5
I0918 11:18:35.873152 30258 net.cpp:131] Top shape: 16 512 1 1 (8192)
I0918 11:18:35.873155 30258 net.cpp:139] Memory required for data: 920270272
I0918 11:18:35.873157 30258 layer_factory.hpp:77] Creating layer fc1000
I0918 11:18:35.873163 30258 net.cpp:86] Creating Layer fc1000
I0918 11:18:35.873176 30258 net.cpp:408] fc1000 <- pool5
I0918 11:18:35.873183 30258 net.cpp:382] fc1000 -> fc1000
I0918 11:18:35.875525 30258 net.cpp:124] Setting up fc1000
I0918 11:18:35.875535 30258 net.cpp:131] Top shape: 16 1000 (16000)
I0918 11:18:35.875537 30258 net.cpp:139] Memory required for data: 920334272
I0918 11:18:35.875541 30258 layer_factory.hpp:77] Creating layer fc1000_fc1000_0_split
I0918 11:18:35.875546 30258 net.cpp:86] Creating Layer fc1000_fc1000_0_split
I0918 11:18:35.875550 30258 net.cpp:408] fc1000_fc1000_0_split <- fc1000
I0918 11:18:35.875555 30258 net.cpp:382] fc1000_fc1000_0_split -> fc1000_fc1000_0_split_0
I0918 11:18:35.875558 30258 net.cpp:382] fc1000_fc1000_0_split -> fc1000_fc1000_0_split_1
I0918 11:18:35.875562 30258 net.cpp:382] fc1000_fc1000_0_split -> fc1000_fc1000_0_split_2
I0918 11:18:35.875597 30258 net.cpp:124] Setting up fc1000_fc1000_0_split
I0918 11:18:35.875602 30258 net.cpp:131] Top shape: 16 1000 (16000)
I0918 11:18:35.875604 30258 net.cpp:131] Top shape: 16 1000 (16000)
I0918 11:18:35.875607 30258 net.cpp:131] Top shape: 16 1000 (16000)
I0918 11:18:35.875609 30258 net.cpp:139] Memory required for data: 920526272
I0918 11:18:35.875612 30258 layer_factory.hpp:77] Creating layer loss
I0918 11:18:35.875615 30258 net.cpp:86] Creating Layer loss
I0918 11:18:35.875618 30258 net.cpp:408] loss <- fc1000_fc1000_0_split_0
I0918 11:18:35.875622 30258 net.cpp:408] loss <- label_data_1_split_0
I0918 11:18:35.875627 30258 net.cpp:382] loss -> loss
…
